best_model_standard_scaling_general.pth (torch, 74720 bytes, 6 tensors)

0.weight f4 [128, 6]
000000 37 b8 83 39 10 54 3e bc 99 50 c2 bd 59 f6 24 bd
       0.00025123518 -0.011616722 -0.09488029 -0.040273998
000010 41 2a bd bc bf 5a 3f bb de 72 32 3c 69 e6 91 be
       -0.023091437 -0.0029198376 0.010891644 -0.28496101
000020 ec 70 48 3e 14 51 13 bf a5 c1 80 be eb 1a e6 3a
       0.19574326 -0.5754559 -0.2514774 0.001755563
000030 87 01 8b bb 42 af b9 ba 63 a1 1d bc ec 20 3b 3c
       -0.0042421254 -0.0014166611 -0.009620997 0.011421423
000040 04 1e e0 bb 78 48 15 bc 03 b7 8a 39 9e f4 61 bb
       -0.0068395156 -0.009111516 0.00026457765 -0.0034478079
000050 c1 05 2f bc ad ce 6d bc d2 38 3c bb 5c db 02 bd
       -0.010682524 -0.014514607 -0.002872039 -0.03194748
000060 f2 44 22 bd 09 87 8e 3c d9 48 62 3c 82 ea 32 3d
       -0.039616533 0.017398374 0.013811314 0.043680675
000070 a6 94 1a bd a5 81 1a bd f8 30 5d 3c a8 9b 13 3d
       -0.03773942 -0.037721295 0.013500445 0.036037117
000080 f6 8e 13 bd 51 88 92 bd c6 39 9c 3c 30 94 f9 bc
       -0.03602501 -0.071549065 0.019070517 -0.03046617
000090 ba 11 ad bb 6f 37 01 ba cb 8d 0d bc 69 c1 8f 3b
       -0.005281654 -0.000492922 -0.008639763 0.00438707
0000a0 c8 28 7a bb 6f 6a bc bc 44 f9 5e bb 1a bc 48 3d
       -0.003817128 -0.02299997 -0.0034023086 0.049007513
0000b0 f5 58 29 be 7e 0c cb bc d6 0a 7f bd 5f f3 e4 bc
       -0.1653784 -0.02478623 -0.062266193 -0.02794808
0000c0 27 1e f4 bb b0 a4 0f 3d 31 b2 5f bc cb b7 55 bd
       -0.0074498835 0.035069168 -0.013653324 -0.05217723
0000d0 a1 1f 71 3d 47 0f 34 be 24 0e 40 be ba dd 67 3e
       0.058868054 -0.17583953 -0.18755394 0.22643176
0000e0 47 28 5f bd a2 a2 fd 3e 43 c3 1c 3e 9b 34 af 3c
       -0.05448177 0.4953814 0.15308861 0.021387389
0000f0 07 d2 21 bb ed 0c c9 ba be 5d 9c bb d4 0c 0b bb
       -0.0024691836 -0.0015338935 -0.004771917 -0.0021217363
000100 6e 26 2a bb 2d 63 2f bc 73 25 8f bd f2 fe 50 bd
       -0.0025962847 -0.010704798 -0.06989565 -0.051024385
000110 33 22 86 bb b7 f3 9b 3d 27 2a 23 bd 1b 43 c4 bc
       -0.0040934323 0.07614844 -0.03983512 -0.02395778
000120 9f f3 96 bc 2f 35 92 ba 73 d4 31 bc 3c 2d a0 3d
       -0.018426714 -0.0011154766 -0.0108538745 0.07821128
000130 27 e1 9d bc 37 24 39 bd 08 26 0b 3d fd 50 cd be
       -0.0192724 -0.045200553 0.033971816 -0.40100852
000140 63 fe 0c 3c c7 30 0c bd 02 95 0e 3d db be 75 3c
       0.008605572 -0.034226205 0.034810074 0.014999117
000150 95 49 42 bc 8a 17 49 ba 35 6e 91 bb 34 01 94 3c
       -0.011858364 -0.0007671049 -0.0044381865 0.01806698
000160 aa 3f 18 bc fe 77 f8 bc c7 20 d3 ba 75 38 4f bc
       -0.009292522 -0.030330654 -0.0016107791 -0.012647738
000170 86 c2 67 bc bd 59 d2 3b 9f 55 f6 bb 83 1e 07 bd
       -0.014145499 0.006419389 -0.007517531 -0.032988083
000180 06 f8 5f 3b 7d eb 9a 3b 8f 63 ad bc 37 94 04 bd
       0.0034174933 0.0047277794 -0.021165637 -0.03236791
000190 88 26 13 3b bc b5 8d bc c7 ef 16 bd c0 eb b0 3c
       0.0022453386 -0.017298572 -0.036849763 0.02159679
0001a0 ff 68 8a bc 96 ed e6 3c e4 a4 48 bc a6 c5 6a bc
       -0.01689577 0.028189462 -0.012246344 -0.01432935
0001b0 d1 86 5e bd c8 d0 b2 3e 8d 85 d8 be 17 0a 31 3c
       -0.05432779 0.34924912 -0.4228939 0.010805628
0001c0 67 3c 42 3e a7 0f ce bd 00 37 a2 bd 8c 51 02 bd
       0.18968354 -0.10061579 -0.07920647 -0.03181605
0001d0 92 26 4e 3c ee 7a 81 3d 6a f7 1a bd d9 0c 0c bd
       0.012582438 0.06322275 -0.03783361 -0.03419194
0001e0 45 21 d3 bd c3 d1 1a 3f 50 2c 23 be b4 63 a9 3e
       -0.1030908 0.6047632 -0.15934873 0.3308388
0001f0 37 35 c0 3e 10 e5 08 3a 63 22 94 ba 2d 29 2c bb
       0.375406 0.0005222121 -0.0011301752 -0.002626966
000200 83 07 9f bb 93 e3 35 3b 7c 24 8a bb ac a0 ae bc
       -0.0048531904 0.0027754053 -0.004215775 -0.021316849
000210 2a 45 c2 bb 9a f2 85 3b a0 1f 9b bc bc 75 ea bb
       -0.005928655 0.0040877583 -0.018935978 -0.0071551483
000220 ce eb 18 bb e3 0f 39 bd 34 81 6e bd 03 b2 55 bd
       -0.002333391 -0.045181166 -0.058228686 -0.05217172
000230 7f d7 0d 3b 0c 8d 66 3d d7 47 af bc 83 ab 0b bc
       0.0021643338 0.056286857 -0.02139656 -0.008524778
000240 55 e8 e7 bc d0 11 e1 bc e9 4d 0a bb 29 49 42 3d
       -0.028309027 -0.027474314 -0.0021103567 0.047433052
000250 69 9f 8e bc d9 16 0d bd c9 83 98 3a bf 6a d7 3a
       -0.017409997 -0.034445617 0.0011635955 0.0016435011
000260 07 f1 6a bc d8 30 fa b9 d5 9f df ba 95 d5 47 bc
       -0.014339692 -0.00047720107 -0.0017061183 -0.012196918
000270 f9 23 e5 ba 83 7a 09 3c 21 e1 ea bc 5f b4 92 3d
       -0.0017482034 0.0083910255 -0.028671803 0.07163309
000280 bf f8 91 bc 8c bb ec bc 02 ac 54 bd c1 9a 98 bc
       -0.017818807 -0.028898023 -0.051921852 -0.01862848
000290 29 55 97 bd a3 a4 4d 3c b4 37 c3 bc 07 66 ae bc
       -0.0738929 0.0125514595 -0.023830272 -0.021288885
0002a0 e3 3b 8f bb 9f 20 6e 3b 4e e0 f3 3a 70 5f 0b bc
       -0.0043711527 0.0036335362 0.0018606277 -0.008506641
0002b0 b8 86 88 3b d6 c1 80 bc 9f 8b e9 bb af 00 d5 3a
       0.0041664504 -0.015717428 -0.00712724 0.0016250814
0002c0 ec 05 59 bc d3 44 69 bb a7 99 cb b9 ff b0 0f bd
       -0.013246041 -0.0035594 -0.00038833657 -0.035080906
0002d0 d2 48 bf bc 02 e2 5e bc b8 ce 27 bd 9e 69 9a 3d
       -0.023350153 -0.013603689 -0.040968627 0.07539676
0002e0 5c 25 d2 bc e7 ac d2 bc 1e b4 2e be 35 1c 4e bd
       -0.02565258 -0.025717212 -0.17060897 -0.05031987
0002f0 ed 6a 38 3d f0 9c 0d 3e 7b 99 8d bd d4 23 7e bc
       0.045023847 0.13829398 -0.0691404 -0.015511472
000300 dc 2b 1a bb 1f 95 65 3b bd e2 f2 bb e1 c2 07 bc
       -0.0023524677 0.003503151 -0.007412283 -0.008286209
000310 8f 3d 95 3b c3 8e 54 b9 d1 52 a3 3a 0b 81 cc 3a
       0.0045544575 -0.00020271078 0.0012460594 0.0015602423
000320 e7 30 fd bb 43 81 96 bc 71 7b 07 3b 6b 14 44 bc
       -0.007726777 -0.018372184 0.0020672942 -0.011967759
000330 26 a7 2c bc 76 1e 7b 3d 2e c1 8c bd 8a d5 82 3c
       -0.010537898 0.061308347 -0.068727836 0.015970964
000340 e9 b3 c5 bd 4b 08 d5 bc f0 4f 64 bb 06 73 60 3c
       -0.09653456 -0.026004931 -0.0034837686 0.013699299
000350 2b ab 35 bb b0 0f 80 3d 49 43 ae bc 8a 5c c4 bd
       -0.0027720432 0.06252992 -0.021272318 -0.09587963
000360 a7 6e 69 3e 5f 88 eb be 8e 56 2e bd 03 fc 82 3d
       0.22796117 -0.4600248 -0.042563014 0.06395724
000370 ff 8a f2 be 56 bb 53 bd 77 78 56 bf f2 40 31 3f
       -0.4737167 -0.05169233 -0.83777565 0.69239724
000380 74 3c ed 3c df 42 ed 3e d2 1e 1b 3f 2e 44 9a 3b
       0.02895949 0.4634008 0.60593903 0.0047078347
000390 44 90 a1 be cc 1d 68 be a7 da 96 bd 2e 36 0b 3f
       -0.31555378 -0.22667617 -0.073659234 0.54379547
0003a0 f5 fc dc be 90 18 7b 3b 3a dd 88 bc 77 de 21 bc
       -0.4316174 0.00383142 -0.016707052 -0.0098797
0003b0 5b 48 e6 bb 06 fc d6 3c ea 1b 9c bc ee 63 3f bc
       -0.0070276684 0.026243221 -0.01905628 -0.01168154
0003c0 44 0d 64 bd df 51 e9 bc 0b 83 91 3c 32 ef 7c 3d
       -0.055676714 -0.028481422 0.017762681 0.061751552
0003d0 5b f9 13 bd 20 c0 fb bc 0e 32 b2 3d 38 f4 1c 3f
       -0.036126476 -0.03073126 0.087009534 0.6131015
0003e0 ee ca b5 3d 81 bb ce be a0 0b 0b 3f f0 66 89 be
       0.088765964 -0.4037743 0.54314613 -0.26836348
0003f0 39 2b 9a bc 19 8e 74 3d b2 95 08 bc c4 bf 6c bd
       -0.018819438 0.059705827 -0.008336471 -0.05780007

0.bias f4 [128]
000000 d2 d8 af bd 3d 3b 9d 3d 25 4a 49 bd cd 3b 84 bd
       -0.08586277 0.076773144 -0.049142975 -0.064567186
000010 e9 66 43 be 35 c9 56 be 0b cc 53 bd 16 96 4c be
       -0.19082226 -0.20975192 -0.051708262 -0.19979128
000020 30 c8 0a bf 11 d3 34 be 4a 8b 04 bd e0 90 54 be
       -0.5421171 -0.1765864 -0.0323594 -0.2075839
000030 da bc 74 be 40 0c 82 be 54 be d8 bd 14 ef 90 bd
       -0.23900166 -0.2539997 -0.10583177 -0.070768505
000040 32 a1 89 bd 9e 8a 56 be 84 11 61 3e 0a 84 82 be
       -0.06720199 -0.20951316 0.21979338 -0.25491363
000050 6b 75 28 bf 78 b0 4b bd 7a 0e d1 bd d4 41 23 be
       -0.65804166 -0.04972884 -0.10207839 -0.1594308
000060 d9 68 fe bd 03 ac 64 bd ca bd 45 be ae 8a 46 be
       -0.12422342 -0.055828106 -0.1931068 -0.1938884
000070 ac 69 c9 bd 9b 3f af bd 90 20 3e be f0 7e ce be
       -0.098346084 -0.08557054 -0.18567109 -0.4033122
000080 27 e1 06 bd 0a 41 5d bd 82 a6 e0 bd ee fe 86 be
       -0.032929566 -0.054017104 -0.10969259 -0.2636637
000090 b8 31 0d 3d 2d ec 62 3e 0e aa ef be 81 da 8e bd
       0.034471244 0.22160406 -0.4680943 -0.0697527
0000a0 df cc 2c be da 32 fb be 8c a0 9c be 64 8d 92 3d
       -0.16875027 -0.49062234 -0.30591238 0.07155874
0000b0 28 33 c0 bd 35 e2 95 3d 0c a8 2d 3f 16 27 ab bd
       -0.09384757 0.07318536 0.67834544 -0.083570644
0000c0 e7 1f 88 bd 0b 1d 05 be 11 2a 17 bc 27 3a fa bc
       -0.0664671 -0.1299936 -0.009226338 -0.030545307
0000d0 a2 56 00 3f f1 74 95 be 86 2f 86 bd 36 4d 9b be
       0.5013219 -0.29190782 -0.06552033 -0.30332345
0000e0 85 28 68 bd d0 57 49 c0 ac 99 c7 be b7 1a 49 be
       -0.056679267 -3.1459846 -0.3898443 -0.19639097
0000f0 05 2b 91 be b9 06 b5 be c8 d5 87 3e a8 2e 81 3f
       -0.28353134 -0.3535669 0.2653029 1.0092363
000100 2c b5 74 be 84 63 12 bd 6d 99 de bd 61 e8 ee bc
       -0.23897237 -0.035739437 -0.108691074 -0.029163541
000110 1d ec 7d bd 9c 39 a1 be 73 15 87 be 9a 13 a3 bd
       -0.061992753 -0.31489265 -0.26383552 -0.07962723
000120 2a 64 bb bd 3c 52 80 be 75 6c 1b bd 32 63 93 bd
       -0.09149964 -0.2506274 -0.03794523 -0.071966544
000130 ac b6 ad 3d 0f 5b 0b 3f e2 95 59 bd 01 ce 3e be
       0.084821075 0.5443582 -0.053121455 -0.18633272
000140 33 86 b6 be f9 70 e0 bd 02 70 22 bd 9d 8b 01 bd
       -0.3564926 -0.10959048 -0.0396576 -0.031627286
000150 4f 75 67 bf 6c 20 cf be b0 31 a1 bf 80 9e 02 be
       -0.90413374 -0.40454423 -1.2593288 -0.12755775
000160 a3 22 0c be d0 05 d3 be 75 07 49 bd 08 78 ef 3d
       -0.13685088 -0.41215372 -0.049079377 0.11692816
000170 24 13 9d bd 24 07 84 bd c8 e3 2f be 43 bc 2c be
       -0.076696664 -0.064466745 -0.17176735 -0.16868691
000180 11 94 c6 bd e3 4d f6 be 7b 6d ea bd 63 c5 96 bd
       -0.0969621 -0.48106298 -0.11446663 -0.07361867
000190 24 fa 01 bd 27 c9 b7 be 62 5e 00 bd c6 03 be bd
       -0.031732693 -0.35895655 -0.03134001 -0.092780635
0001a0 db 21 1c be 9a 37 36 bd 1e ca 78 3f 89 5e fb bd
       -0.1524729 -0.04448662 0.97183406 -0.122738905
0001b0 e3 9e 25 be c2 00 1e 3e 62 a9 46 bd 8b cb 0a be
       -0.16173892 0.15429977 -0.04850138 -0.13554208
0001c0 d0 39 73 3e f6 6b 49 be e6 84 a7 be 14 8e f0 be
       0.23752522 -0.1967009 -0.3271858 -0.46983397
0001d0 d0 16 ca be df 60 4d be 8f 10 84 be c1 3a d6 bd
       -0.3947053 -0.20056485 -0.25793883 -0.10460425
0001e0 e0 7c 72 bd d1 0c 95 bd f5 17 2f be 6a fe 89 bd
       -0.05920112 -0.07277835 -0.17098983 -0.06737979
0001f0 73 c1 61 be dd d3 60 bd 83 1e b1 bd c1 14 c8 bc
       -0.22046451 -0.05488955 -0.08648398 -0.024423959

2.weight f4 [128, 128]
000000 f3 60 ee bb c5 55 9d b9 16 27 e0 3a b5 ce 18 3b
       -0.007274741 -0.00030009277 0.0017101492 0.0023316566
000010 74 2e a5 3b 62 6f 2e 3c 01 36 02 bc b4 bb 37 3c
       0.005040938 0.010646673 -0.007947446 0.0112141855
000020 e6 f7 07 3c d9 93 28 bc 3c f0 97 bb 60 44 94 3c
       0.00829885 -0.010289156 -0.0046367925 0.01809901
000030 f6 ff dc bb 16 ed 84 3b 1b 6d f6 bb f8 c1 5d 38
       -0.00674438 0.004056583 -0.0075203306 5.2871153e-05
000040 7f 59 04 3a 3a 36 3b bb 14 1f 9c 3c 2c 34 c6 bc
       0.00050487363 -0.0028566257 0.019057788 -0.0241948
000050 bc 0b 11 3c f4 84 ab bb a7 08 19 ba 53 e5 ef 3c
       0.008852895 -0.005234355 -0.0005837776 0.029284155
000060 eb c8 18 3c 47 61 da 3b 66 35 0d 3c 3a f5 cf 3b
       0.009325246 0.0066644284 0.008618688 0.006346372
000070 50 37 67 3b df f8 6a bb d7 46 86 3a 62 d7 bb bc
       0.0035280772 -0.0035853905 0.0010244501 -0.022929851
000080 cd 6f c4 3b a6 db 22 3b 3c ca 98 3c 57 08 8d bc
       0.005994773 0.002485016 0.01865112 -0.01721589
000090 c1 11 c2 bc c0 c6 b9 bc 06 bb 13 bb d8 7e 15 bb
       -0.023690106 -0.02267778 -0.0022541895 -0.00228112
0000a0 e2 75 28 3c 50 30 bd 3c 72 38 33 bc 5b 26 df 3c
       0.010282012 0.023094326 -0.010938751 0.027239969
0000b0 45 a0 0e bc 38 3c 8c 3d b3 9e 76 3c 23 b5 9d 3a
       -0.008705203 0.06847423 0.015052485 0.0012032132
0000c0 44 d4 57 bb b4 1a f4 bc e7 52 0e 3d 02 e3 7a bb
       -0.0032932917 -0.02979789 0.03474703 -0.003828228
0000d0 14 d5 5c bd 0d 96 f0 3b c3 98 57 ba 2d 8f 89 3c
       -0.053914145 0.007342106 -0.00082243624 0.016791904
0000e0 1a ab 9e ba d1 1d 0d bd fb cc 86 3c df 0a ac bc
       -0.0012105436 -0.034452263 0.016455164 -0.021001277
0000f0 6d 9b 57 bd fe 1f 51 3a 6e 09 aa bd 83 3b cf bc
       -0.05263846 0.00079774845 -0.0830258 -0.025296932
000100 b8 0d 1c bd 92 10 07 3d 6a 51 f3 bb eb 34 cf bb
       -0.03809902 0.032974787 -0.007425477 -0.006323447
000110 2a fe aa 37 9b e3 0e 3d 21 35 fa ba 63 93 d2 ba
       2.0383934e-05 0.03488503 -0.001908932 -0.0016065653
000120 b1 d2 1a 3c f3 c6 e9 3d 06 f8 a9 bb f6 49 89 bb
       0.009449647 0.114149 -0.0051870374 -0.004189725
000130 47 88 6d bc 04 97 36 3c 26 7d bd 3b cc a4 2e bd
       -0.014497823 0.011144403 0.005782741 -0.04263763
000140 42 1b a5 3c df 25 62 3b 05 f5 97 3a b4 e2 e1 3d
       0.0201546 0.0034507436 0.0011593407 0.11029568
000150 e3 48 1e 3e 4e f2 85 3c be 62 c0 bb 49 e3 46 bc
       0.15457492 0.016350891 -0.005871146 -0.01213915
000160 aa d0 06 3c fc 5d d8 3a b2 1c 47 bc 00 c0 ac bc
       0.00822846 0.0016507502 -0.012152838 -0.021087646
000170 c6 86 9e 39 3e 30 9d bb fb 05 d5 3a a2 2b 8f bc
       0.00030236522 -0.0047970107 0.0016252393 -0.01747686
000180 7e 43 85 39 ed 94 1d 3c bf 68 82 3c d1 b2 94 3a
       0.00025418022 0.009618026 0.015919087 0.0011344795
000190 9e 62 02 3b d2 87 01 3c 5a 32 aa bb 58 d6 0d bc
       0.0019895206 0.007905917 -0.0051939907 -0.008657061
0001a0 89 46 8a bb fc 57 3f 3b a0 1d 25 bc 3b 1d ec 39
       -0.004219834 0.002919673 -0.010077864 0.00045035206
0001b0 9b 12 7b 3a cc c7 da 3c 09 f0 bd 3b 8b 9b f5 bb
       0.00095776626 0.026706599 0.0057964367 -0.007495349
0001c0 68 50 82 bd bb a5 76 3c f6 d2 f6 bc 64 20 bd bc
       -0.063629925 0.015054162 -0.03012989 -0.023086734
0001d0 49 6e 3a bc d4 1e e0 bc 4b ae 2b bd 08 ab a9 3b
       -0.011378833 -0.02735845 -0.041914266 0.005177859
0001e0 4d 0d 16 bb fa 61 3b 3a 77 ac 93 bb 1c 27 7b bb
       -0.0022896111 0.00071480835 -0.0045066434 -0.0038322872
0001f0 4c 08 dc 3c 4f 1a 46 b9 a1 c7 04 3c 60 ef 1a 3c
       0.026859425 -0.00018892552 0.008104236 0.0094564855
000200 7e 2a 3d bc fb 03 d2 3b 26 58 81 3a fd 79 21 3b
       -0.011545775 0.006409166 0.0009868189 0.002463936
000210 64 99 31 3b 31 38 3a 3c 3e e0 06 bc c9 ca 37 3c
       0.0027099485 0.011365936 -0.008232174 0.011217781
000220 cd df 38 3c e4 e8 16 3c e9 b4 99 bb 45 62 b0 3c
       0.011283827 0.009210799 -0.0046907556 0.021531234
000230 37 3a d5 bb 99 11 ea 3c e3 c8 06 bc 1c 1e a9 38
       -0.006507184 0.028572844 -0.008226606 8.064156e-05
000240 2e a1 15 3a 76 15 a6 bb 2b 5c fb 3b 7e 8c d7 bc
       0.00057079166 -0.0050684763 0.0076708994 -0.02631211
000250 31 33 99 3c e5 d9 ad bb 2e cb 63 ba c0 fe ef 3c
       0.018701168 -0.005305516 -0.0008689639 0.029296279
000260 be 05 82 3b af 7a da 3b c7 21 ed 3b e3 8f 76 3b
       0.0039679697 0.006667457 0.0072366926 0.0037622384
000270 c5 bc 73 3b 12 25 71 bb cf 14 eb 3a 04 46 ca bc
       0.0037191373 -0.0036795777 0.0017935279 -0.02469159
000280 e9 72 c4 3b dc 45 00 3b c1 09 65 3c 87 69 9e bc
       0.0059951437 0.001957289 0.013979376 -0.019337429
000290 da 12 42 bb f7 b3 90 bd ee 17 64 bd 5f 31 d3 bb
       -0.0029613287 -0.070655756 -0.055686884 -0.0064450945
0002a0 65 b5 1f 3c 76 79 01 3d f1 de 08 bc 5b 06 ee 3c
       0.009747838 0.031609975 -0.008353935 0.029055765
0002b0 4a e4 1a bc e1 2c 94 3d 08 10 45 bb 69 9b 99 3a
       -0.009453842 0.072351225 -0.003006937 0.001171929
0002c0 fe f7 58 bb 12 56 c8 bc 00 ed 11 3d 19 8b 79 bb
       -0.00331068 -0.024455104 0.03562641 -0.0038077293
0002d0 e6 a3 74 bd 34 c2 15 3c cd e1 52 ba ff c2 55 3c
       -0.05972662 0.00914054 -0.0008044511 0.013046979
0002e0 e0 53 b8 ba 1b b3 ba bd 57 a9 e0 3c 6a 40 d5 bc
       -0.0014063083 -0.09116193 0.027424498 -0.026031692
0002f0 47 bf 51 bd c3 f6 3f 39 d9 17 92 bd a3 cc 37 bb
       -0.051207807 0.00018307105 -0.07133455 -0.0028045557
000300 84 70 4f bc dd 4d 7f 3d 2b c7 f1 bb 34 d5 cf bb
       -0.012661103 0.062330116 -0.007378479 -0.0063425545
000310 b4 60 23 b7 30 0b 11 3d 0d 24 1f bb 6d f5 b3 ba
       -9.738073e-06 0.03541106 -0.0024282963 -0.0013729759
000320 9f c7 35 3c 4c 1a c0 3d d9 68 aa bb 9d ba 8b bb
       0.011094957 0.09380016 -0.005200487 -0.0042641894
000330 f4 17 4d bc e6 09 8d 3c b5 ed a8 3b 2b 27 2c bd
       -0.012517918 0.017216634 0.00515529 -0.04202954
000340 19 94 5c 3c 52 61 85 3b 6f 26 97 3a 56 ae d0 3d
       0.013463044 0.0040704394 0.001153184 0.10189502
000350 1d c8 22 3e 4e 39 60 3c 01 a7 ea bb cc d9 4b bc
       0.1589665 0.0136855375 -0.0071610217 -0.012442064
000360 55 ac 9c 3b a3 06 1d 3b bf 73 47 bc 33 47 19 bd
       0.0047812858 0.0023960255 -0.012173592 -0.037421416
000370 9a f9 16 39 b2 90 9c bb ca 13 50 38 4a c7 8d bc
       0.00014398099 -0.004777991 4.9609494e-05 -0.017306942
000380 35 a3 bd ba c9 42 16 3c 45 8e 7e 3c 66 9a e7 39
       -0.0014468195 0.009171196 0.015536849 0.0004417479
000390 32 c1 ff 3a 67 0b a6 3b 9e 33 aa bb b5 29 00 bc
       0.0019512533 0.0050672772 -0.0051941415 -0.007822444
0003a0 ae 4a 12 bb 0f 77 46 3b 8a 95 34 3b cd 6a 00 bc
       -0.0022322345 0.0030283367 0.0027554953 -0.007837963
0003b0 e0 ef 90 3a 3a c4 26 3d fa fe bd 3b fb 83 11 bc
       0.0011057816 0.04071448 0.005798218 -0.008881564
0003c0 5d b3 81 bd 89 04 8a 3c 55 21 b6 bc 06 1a cd bc
       -0.06333039 0.016847866 -0.02223269 -0.025036823
0003d0 96 b7 3b bc 4e 81 4f bc 85 d8 2d bd f7 70 83 3b
       -0.0114573445 -0.012665106 -0.042442817 0.004011269
0003e0 d0 e1 16 bb 8d 66 4c 3a 2e d8 d4 bb b7 11 9b bb
       -0.0023022778 0.00077972637 -0.006495497 -0.0047323364
0003f0 43 ba c4 3c 74 cb de b8 ca 46 27 3c c0 2e fc 3b
       0.024014598 -0.00010623681 0.0102097485 0.0076960027

2.bias f4 [128]
000000 29 44 42 40 27 ab 3b 40 2f b9 36 40 34 6c 34 40
       3.0354102 2.9323213 2.8550527 2.8191042
000010 79 b2 05 40 27 0e 19 40 ac 94 29 40 dc 39 e3 3f
       2.089018 2.3914888 2.6496992 1.7752032
000020 b6 83 90 3e fc 31 6d bd 4e a2 a6 bd ce 19 10 be
       0.28225487 -0.057908997 -0.08136426 -0.14072344
000030 2a f2 63 3f 30 83 2d 40 2c 3d 75 ba 79 38 2d 40
       0.8904139 2.711132 -0.00093551236 2.7065718
000040 47 9e 43 40 75 16 9e 3e bc 3d 25 40 90 d6 ee 3d
       3.0565355 0.30876508 2.581893 0.11662018
000050 31 7a 25 40 92 e7 3c 40 f4 05 58 c0 f0 9b 37 40
       2.585583 2.951634 -3.3753633 2.8688927
000060 ec 06 63 b8 d0 84 2e 40 a5 80 41 40 38 6d 2c 40
       -5.4127464e-05 2.7268562 3.0234768 2.6941662
000070 66 08 2d bc 6e 80 9b 3f 6e 47 5b b8 7a 48 d0 bb
       -0.010561084 1.2148569 -5.2280193e-05 -0.006356296
000080 f0 5e b8 bd 2a 15 19 40 af 37 34 40 2a 1f 9e 3f
       -0.09002483 2.3919168 2.8158987 1.235326
000090 09 f9 e2 be 04 30 2d 40 2a b1 12 40 3a 56 d8 3e
       -0.44330624 2.7060556 2.2920632 0.42253286
0000a0 35 23 2f 40 9b 6d 35 40 de 62 3c 40 d3 38 2d 40
       2.7365239 2.8348148 2.9435344 2.7065933
0000b0 44 52 26 40 b5 3b 62 3f 74 ea 2b 40 50 62 29 40
       2.598771 0.88372356 2.686185 2.6466255
0000c0 58 82 23 40 61 54 4b be 09 8d 42 40 3f 95 79 3e
       2.5548306 -0.19856407 3.039858 0.24373339
0000d0 3a 4f 24 40 5b 6e 42 40 7a 3b cd 3f 0f f1 0a 40
       2.5673356 3.0379856 1.6033776 2.170963
0000e0 94 f9 3c 40 90 89 39 40 e0 87 17 3f 31 34 03 40
       2.952733 2.8990211 0.59191704 2.0500605
0000f0 9b 73 38 40 21 0f df 3e ee bf c3 bb 4a 43 2d 40
       2.882056 0.4356623 -0.0059738075 2.707232
000100 b0 c3 70 3f 60 08 d6 bc 68 bb 30 3f 7d 7d d4 3e
       0.94048595 -0.02612704 0.6903596 0.4150199
000110 46 52 fa 3f 1f fb b4 be 3f 10 ac 3f 13 9a 2e 40
       1.9556358 -0.3534784 1.3442458 2.728154
000120 5e 07 c9 3d 8a c4 3b 40 86 c2 33 40 3e 6c 34 40
       0.09815858 2.9338708 2.8087478 2.8191066
000130 28 f9 2b be 4f c7 98 3f e5 7a 40 40 70 8f c8 3e
       -0.16794264 1.1935824 3.007501 0.39171934
000140 88 4b b5 3f bd fb 6b bc a2 38 02 40 8e b1 1a 40
       1.4163675 -0.014403281 2.0347066 2.417087
000150 17 5e 2c bf 85 e1 3b 40 0f 58 88 bf 21 c1 2c 40
       -0.6733107 2.9356396 -1.0651873 2.6992877
000160 b5 7f 2b be df 5e 43 bf eb fc 42 3f 36 ec b5 3f
       -0.16747935 -0.76316637 0.7616717 1.4212711
000170 21 33 5a 3f 4f 5f b1 3e ec 89 2e 40 2f 1c 55 be
       0.85234267 0.34643027 2.727168 -0.20811532
000180 68 32 2b 40 ff c0 34 40 41 b0 3a 3e 6c 7d 37 40
       2.6749516 2.8242795 0.18231298 2.8670301
000190 8d 84 8d 3f 35 7d 2a 40 05 6a 9c 3f 7c de 29 40
       1.1056076 2.663892 1.2219855 2.6542044
0001a0 4e f9 32 3f d8 c3 12 3f 52 16 27 40 1f 8d c9 3c
       0.6991166 0.57330084 2.6107373 0.024603425
0001b0 9b c0 30 bf 2c 20 0e be 0a be 76 ab da 95 24 40
       -0.6904389 -0.1387946 -8.766049e-13 2.5716462
0001c0 f3 a2 28 40 03 7a 5d 3f 8d 34 4a 40 3c 8a 29 40
       2.6349456 0.865143 3.1594574 2.6490622
0001d0 42 75 27 40 3b 16 7d bf bf 5d 79 c0 52 23 7a 3f
       2.6165318 -0.98862046 -3.8963468 0.97710145
0001e0 ed 28 2c 40 9f 8e d6 b5 9d 35 c0 3f 1d 43 73 3f
       2.689998 -1.5985751e-06 1.5016361 0.9502428
0001f0 b3 88 87 3d 12 17 cc 3f 20 59 42 3f f8 0a 43 40
       0.0661787 1.594454 0.75917244 3.0475445

4.weight f4 [4, 128]
000000 90 6e 8e 3f 96 06 84 3f 82 ac 72 3f 92 81 75 3f
       1.1127491 1.031451 0.94794476 0.95900834
000010 3c 06 5c 3f b0 13 3f 3f 3e ba 53 3f 33 ec b6 bf
       0.8594701 0.74639416 0.8270606 -1.4290832
000020 08 7a 48 3d 66 4b 01 be 05 2c 93 bd ed 29 af bd
       0.048944503 -0.12626418 -0.071861304 -0.085529186
000030 77 f3 2f bf 3c c9 66 3f 53 b2 2c 33 11 9b 65 3f
       -0.6873087 0.9015081 4.0209056e-08 0.8968974
000040 8a eb 8f 3f b0 b6 4b 3f da d1 52 3f 40 60 c0 bd
       1.1243756 0.79575634 0.8235146 -0.09393358
000050 97 ca 5d 3f e1 00 88 3f a2 7f e6 bf 5a 91 79 3f
       0.8663725 1.0625268 -1.80077 0.97487414
000060 1a a4 93 3b b0 cf 63 3f c4 af 8f 3f 03 5a 69 3f
       0.0045056464 0.8898878 1.1225514 0.9115297
000070 10 0e a8 aa 72 50 8c 3d 12 5f 9f b7 9c d4 45 38
       -2.9852553e-13 0.06851281 -1.8998548e-05 4.7166468e-05
000080 d1 25 55 3e 47 48 21 3f ac 8d 69 3f 20 65 4a bf
       0.20815207 0.6300091 0.912318 -0.79060555
000090 f6 ec 22 bf 5c be 62 3f 33 e5 0c 3f cc 3a 13 bf
       -0.63642824 0.88571715 0.5503723 -0.5751159
0000a0 0e cf 69 3f 55 12 7a 3f 93 e5 86 3f ee ce 61 3f
       0.91331565 0.9768422 1.053881 0.88206375
0000b0 71 06 5a 3f cc 03 f5 3e db 05 63 3f 1c 4e 4b 3f
       0.8516608 0.4785446 0.8868081 0.7941606
0000c0 13 d4 72 3f 2a 80 93 be 99 16 8b 3f 93 d2 1d bf
       0.9485485 -0.2880872 1.0866271 -0.61649436
0000d0 15 19 42 3f 8e c9 8d 3f 73 51 8d 3f c3 1b f3 3e
       0.7581952 1.1077135 1.1040481 0.47482118
0000e0 13 79 7a 3f dd cf 89 3f 9d fc 8e 3e 8a d6 d9 3e
       0.97840995 1.076656 0.27927104 0.42546493
0000f0 6f 35 c1 bf 97 53 20 bf b9 f2 f2 ba 8e 7c 5d 3f
       -1.5094432 -0.6262755 -0.0018535472 0.8651818
000100 e5 33 0c bf 3e 56 d2 3c 0e 51 44 3f 33 5d e6 be
       -0.54766685 0.02567589 0.7668618 -0.4499298
000110 72 57 52 3f a2 ef 19 bd ec 54 b0 bf 1a 0e 69 3f
       0.8216468 -0.037582047 -1.3775916 0.9103714
000120 79 76 32 3e 19 42 7e 3f 6c 55 61 bf 06 d6 69 3f
       0.17428006 0.99319607 -0.8802097 0.913422
000130 92 5e 00 3e 4b 8c d6 3d 34 c3 8a 3f c1 f2 d6 be
       0.12536076 0.104759775 1.0840821 -0.41982082
000140 fa af 21 bf 53 a7 12 b4 03 04 0a c0 73 2c 7d bf
       -0.63159144 -1.3658182e-07 -2.1564949 -0.9889595
000150 ce 8d 8e 3e 82 4f 88 3f 4d 4f 4d bf e4 83 66 3f
       0.27842563 1.0649264 -0.8019913 0.90045
000160 20 cc 91 3e 91 82 f7 b9 70 37 92 bf 3f 62 28 3e
       0.28476048 -0.0004720879 -1.1423168 0.16443728
000170 c8 a9 f7 be 01 8e 19 3f 14 41 66 3f d9 58 ad 3e
       -0.4837172 0.59982306 0.8994305 0.33856848
000180 9c 56 5e 3f e4 a9 78 3f 35 7f 10 3f 4f 18 7d 3f
       0.86850905 0.9713423 0.564441 0.98865217
000190 23 54 3d be 8c 0f 57 3f b0 fb 82 3f 07 c4 5e 3f
       -0.18489127 0.840081 1.0233059 0.87017864
0001a0 bc d8 39 3f 9c 33 d6 3e 19 e4 4d 3f f3 22 2e bf
       0.72596335 0.4183625 0.80426174 -0.6802208
0001b0 dc be 37 bf 00 cb e4 3e b6 81 d2 29 bd e6 73 3f
       -0.71775603 0.44686127 9.348375e-14 0.95273954
0001c0 7d 78 5e 3f 80 58 66 be 3a 15 9b 3f 8c 99 bb bf
       0.869026 -0.22494698 1.2115853 -1.4656234
0001d0 8f 08 56 3f 7b 9a 81 be 78 90 a7 bf 3e 23 95 bf
       0.8360681 -0.25313172 -1.3090963 -1.165138
0001e0 b4 05 62 3f a3 cc 8f 34 dd 57 b5 3e cd 07 50 bf
       0.8828995 2.6784718e-07 0.35418597 -0.81261903
0001f0 ae a5 2f be fc 31 04 bf 2a c9 54 be f6 db 90 3f
       -0.17153046 -0.5163877 -0.20779863 1.1317127
000200 d0 26 8e 3f f9 7c 84 3f 76 98 83 3f 6e 38 7a 3f
       1.1105595 1.0350639 1.0280902 0.97742355
000210 6c cb 89 3f a3 6f 89 3f 1f 4b 60 3f 85 17 a9 bf
       1.0765204 1.0737194 0.87614626 -1.3210303
000220 8e b6 f8 be f7 90 3b bd 5c 75 06 bb 6d 86 23 bb
       -0.48576778 -0.045792546 -0.002051673 -0.002495195
000230 c7 c1 e4 be 27 73 66 3f 3e ed e4 36 3e 84 70 3f
       -0.4467909 0.9001946 6.822548e-06 0.93951786
000240 f9 43 90 3f 4f 02 33 3f a1 27 4b 3f 9b f2 e5 3d
       1.1270744 0.699254 0.79357344 0.11227914
000250 ec 54 47 3f b2 df 84 3f 7a 1e c3 bf 39 55 83 3f
       0.77863955 1.0380766 -1.5243676 1.0260383
000260 db 6c 1e bb c3 1b 6f 3f 26 fa 89 3f 64 80 66 3f
       -0.002417377 0.93401736 1.0779464 0.9003966
000270 70 71 87 b2 7a c8 a8 be fe fa c1 37 f4 53 da 3a
       -1.5767654e-08 -0.3296545 2.312427e-05 0.00166571
000280 f7 bb 80 3d 45 40 32 3f ab e0 82 3f 9b 92 c1 bf
       0.062858514 0.6962932 1.0224813 -1.5122865
000290 3b 18 a9 be 42 f1 74 3f be 30 1d 3f 7f cf 23 bf
       -0.330263 0.9568063 0.614025 -0.6398849
0002a0 2c 9f 70 3f 9f d4 80 3f e9 06 8a 3f 95 03 67 3f
       0.93992877 1.0064887 1.0783359 0.9023984
0002b0 e0 46 4f 3f c1 7d 1b 3f 80 5a 65 3f 29 76 5d 3f
       0.8096752 0.6073876 0.8959122 0.86508423
0002c0 8c 29 46 3f 99 8e 4a bd cb b1 8e 3f 8f 3e 4c 3d
       0.77407146 -0.049452398 1.1148008 0.049864348
0002d0 6b 8c 40 3f 62 09 8e 3f 83 5c 4f 3f 11 bc 08 3f
       0.7521426 1.1096613 0.81000537 0.53411967
0002e0 3b a2 8f 3f 63 12 6d 3f 54 13 93 3f 68 43 ce 3e
       1.1221384 0.9260618 1.1490273 0.40285802
0002f0 f2 aa d9 bf 49 80 e5 3e 49 1e 7b bb 08 0f 6c 3f
       -1.7005293 0.44824436 -0.0038317612 0.92210436
000300 4a cd 5f be 07 6f b4 bc a2 22 f6 3d 7a b6 55 bf
       -0.21855655 -0.022025598 0.120183244 -0.8348156
000310 12 f0 1c 3f 17 ec 95 be 4d 24 83 bf 45 6d 76 3f
       0.6130382 -0.29281685 -1.0245453 0.9626048
000320 bf ed 60 3d 23 c3 87 3f f4 9a 8a bf 29 ba 83 3f
       0.054914232 1.0606426 -1.0828538 1.0291187
000330 f1 03 a2 bd 44 bd 46 3f 97 12 8a 3f 17 c1 fc be
       -0.07910908 0.77632546 1.0786923 -0.49366066
000340 09 69 3f bf 5b 7f 05 bc 26 03 be bf bb 33 e6 bf
       -0.74769646 -0.00814804 -1.4844711 -1.7984537
000350 6d f3 4e be 45 89 82 3f 60 aa 8e be fd c4 69 3f
       -0.20210047 1.0198141 -0.2786436 0.91316205
000360 16 14 7a be 80 1f 57 3f 75 10 1d bd 18 20 d3 3e
       -0.24421725 0.8403244 -0.038345773 0.41235423
000370 b3 e4 99 bf da 08 f8 3e fa a1 6e 3f 2a 2f 99 be
       -1.2022918 0.48444253 0.93215907 -0.29918796
000380 b0 c6 69 3f 15 ee 76 3f d1 d0 d4 3d 61 e8 83 3f
       0.913188 0.96457034 0.10391391 1.0305291
000390 fe 2e 7a bf d7 bb 6c 3f bb 0e 6c 3f 06 ee 5e 3f
       -0.97727954 0.9247412 0.92209977 0.87081945
0003a0 2d 97 02 3f cf b8 35 3f 52 e9 56 3f 40 b3 59 bf
       0.51011926 0.7098512 0.8394977 -0.8503914
0003b0 b5 d7 b0 bf 03 a6 9c be cc d3 72 34 7e 39 50 3f
       -1.3815829 -0.30595407 2.2615058e-07 0.81337726
0003c0 ce e3 55 3f 50 8f f0 be 05 ac 91 3f a9 2a da bf
       0.8355073 -0.4698434 1.1380621 -1.7044269
0003d0 e5 97 5e 3f 88 7c 39 3d 56 16 fe bf 08 78 fc be
       0.8695052 0.045284778 -1.9850566 -0.49310327
0003e0 64 77 57 3f dd c0 2c b5 ed 1c df 3e d1 85 84 bf
       0.8416655 -6.4355646e-07 0.43576756 -1.0353338
0003f0 98 af d3 3e 72 f1 8b be 47 80 eb be 7a fc 8f 3f
       0.41344905 -0.27332646 -0.45996305 1.1248925

4.bias f4 [4]
000000 73 0a ae 3f 3b 24 65 3f 8c 03 13 3f 5a d3 f8 3e
       1.3596939 0.8950841 0.5742729 0.48598748
