best_model_standard_scaling_general.pth (torch, 74720 bytes, 6 tensors)

0.weight f4 [128, 6]
000000 81 ae cb 3a e6 38 99 bc 93 df ba bc 2c 75 8b 3c
       0.0015539677 -0.01870389 -0.022811687 0.017023645
000010 0c 92 a9 bc 93 e0 17 bd ba 11 97 3c 07 c5 a3 bb
       -0.020699523 -0.037079405 0.01844107 -0.0049978527
000020 c9 10 0c bd cd 6c a6 3b de d7 e1 bc ff ed 37 bd
       -0.034195695 0.005078888 -0.027568754 -0.044904705
000030 e4 8a fb ba df e7 00 bc 06 71 d6 bc 79 70 d6 3b
       -0.0019191173 -0.007867782 -0.02617694 0.0065441695
000040 3f da 11 bc 95 f9 16 bc 32 4e 70 bd f5 67 df bd
       -0.008902132 -0.009214778 -0.058668323 -0.109085
000050 f3 47 d8 bc 07 bf 52 3d 42 14 d5 bd 64 15 9f bd
       -0.026401496 0.05145171 -0.104042545 -0.07767752
000060 6e 52 be 3d 6e 98 00 3d 2c c7 01 bd 2c a5 40 3d
       0.09293066 0.03139537 -0.031684086 0.04703252
000070 47 d3 ec 3c e5 46 03 bd 73 01 26 bc cd 5d 13 bc
       0.028909339 -0.032050032 -0.010132181 -0.008994532
000080 57 ff af bc a4 72 53 3c 3e 57 37 bc cf e3 a6 bc
       -0.02148406 0.01290575 -0.011190234 -0.0203723
000090 d7 5e 7f bb 7b 07 1c bb 4e b3 d7 bc 5d db 3b 3b
       -0.003896644 -0.002380817 -0.026330616 0.0028664686
0000a0 f9 73 a6 bb 13 e4 ae bc f5 57 d6 3e 4f 60 59 3e
       -0.005079743 -0.021348989 0.4186398 0.21228145
0000b0 71 4a 01 be eb b7 c0 3d 6d 81 d3 3d a3 ed 65 bc
       -0.12626053 0.094100796 0.103274204 -0.014033708
0000c0 d5 20 28 3e 90 54 70 bd 59 67 70 bd 1f d4 5e bd
       0.16418774 -0.058674395 -0.05869231 -0.054401513
0000d0 5c 0c 00 bd 9a 7d 4e bd 62 c2 69 bc 06 f7 78 bc
       -0.031261787 -0.05041275 -0.014267536 -0.015195614
0000e0 f8 b9 8a bc 26 84 fc 3b f9 29 8e bc 3d 4e 97 bd
       -0.01693438 0.007706183 -0.017353998 -0.0738797
0000f0 a0 9e b2 3c 92 e6 17 3d 1e 32 e4 3b a6 d6 af 3d
       0.021804154 0.037085123 0.0069639822 0.08585863
000100 db 43 59 bc a1 7f bd bd a2 d8 55 3e 63 a1 67 be
       -0.013260807 -0.09252859 0.2088342 -0.22620158
000110 b1 1f d5 bc 26 66 85 3e 42 12 c0 bd 81 56 6b be
       -0.026016088 0.26054496 -0.093784824 -0.22982217
000120 df 80 56 bb c3 2d f6 bb 45 9e 50 bb f1 54 ec 3b
       -0.0032730622 -0.0075127794 -0.0031832617 0.0072122742
000130 7c c4 0c bc 45 d7 60 bc 2f 91 a1 be cf e2 13 bf
       -0.008591767 -0.013723199 -0.3155608 -0.5776796
000140 e6 cc d7 3d 33 ea 5f be 4a 18 d5 be 3b d4 79 3c
       0.10537128 -0.21866684 -0.41620094 0.015248354
000150 4c f6 c6 3a 1a 73 bb 3a c6 ca 40 bb 32 e2 8b bb
       0.0015179603 0.0014301271 -0.0029417737 -0.004268908
000160 3e 92 3b ba 33 0e 13 bc 9d 0b e5 3b fc 36 82 3b
       -0.00071552757 -0.008975553 0.00698991 0.00397384
000170 f4 07 ca bc 80 fd db bb 2b b6 99 bb ba 4a d0 bc
       -0.024661995 -0.006713569 -0.0046909056 -0.025426257
000180 8d 62 8f 3b c6 da ad ba ec e6 39 bc a9 96 1e bc
       0.004375762 -0.0013264052 -0.01134656 -0.009679475
000190 f7 10 82 bb c1 58 ec bc bf 91 f8 bb d7 5e 81 bd
       -0.0039693075 -0.028850915 -0.0075857337 -0.063169174
0001a0 28 9a 4a bc 3b 73 96 3d 52 a0 8f bd 44 06 bd bd
       -0.012365855 0.07346197 -0.070130005 -0.09229711
0001b0 25 3e fb b9 f6 d9 1d 3c fa a4 0c bc 66 c7 cf be
       -0.00047920752 0.0096344855 -0.008584255 -0.40581816
0001c0 e4 9c e5 3c ec 0b 7b bc 66 32 f9 bb 3f 91 e1 ba
       0.028028913 -0.015322667 -0.007604885 -0.0017209424
0001d0 54 6e 44 bb 60 9d 03 3c 90 1e e1 bb 37 d1 9d bb
       -0.0029972987 0.008033127 -0.0068700984 -0.0048162
0001e0 c8 3b 14 3d 45 5f ad 3c 6f 43 8e 3c 0d a2 ab 3d
       0.036189824 0.021163592 0.01736614 0.08380518
0001f0 ff 23 30 3d 73 0d ec bd 2b 28 83 3b d1 66 19 bd
       0.04300308 -0.11526003 0.004002591 -0.03745157
000200 7c 3f fc bd 61 b8 aa bd 7f 7f 49 bd 0c 13 96 bd
       -0.12316796 -0.08335949 -0.049193855 -0.07327852
000210 7d 38 f7 38 73 f6 62 bb ec 68 9b bb bd 17 d5 3a
       0.000117883996 -0.0034631758 -0.0047427323 0.0016257685
000220 89 05 44 bb d7 83 88 bc d0 6a d0 bc 3c c0 0b bc
       -0.0029910526 -0.016664429 -0.025441557 -0.008529719
000230 4b 52 fc 3b 2f fa d8 bb 8e 14 53 bc 3a 2e f2 bc
       0.00770024 -0.006621621 -0.012883319 -0.029563058
000240 0d be 0a 3b 79 f9 dd ba 72 10 c1 bc ff 9e d4 39
       0.0021170408 -0.001693531 -0.023567412 0.00040554252
000250 ed 1e 8d bb 7e 58 be bb 42 70 50 bc 9f 64 32 3a
       -0.004306665 -0.005808889 -0.012722077 0.0006805155
000260 6d 3e bc ba da 7a 03 bb 06 72 5d bb f9 c5 45 bd
       -0.0014361866 -0.002006224 -0.0033789887 -0.048284505
000270 65 a6 48 bd 15 18 cf bc 1a 89 85 3c af d0 e5 3c
       -0.04898681 -0.025280038 0.016300727 0.02805361
000280 b4 f0 1e bd 29 17 8d bc c3 3b 4d b9 dd 2a 0a bc
       -0.03880377 -0.017222958 -0.00019572586 -0.008433071
000290 64 44 b7 bc 5d 75 11 3d cc f6 6b bc c3 50 0f bd
       -0.022371478 0.035512317 -0.014402103 -0.03498913
0002a0 0f 2b c4 b9 a4 70 0b bb cd 29 27 bd 44 f7 4e 3c
       -0.00037416114 -0.0021276856 -0.04081135 0.012632195
0002b0 c0 15 d2 bb 16 e2 9e bc 6e 41 68 bc ac 22 03 bc
       -0.006411284 -0.019394916 -0.014175756 -0.008003872
0002c0 b2 18 4e bc da 01 dd 3b ba af 27 bc c3 ba 05 bd
       -0.01257913 0.0067446055 -0.010234768 -0.032648813
0002d0 62 4d 91 be fb dc 1e 3d 97 8d 9d 3d 68 4a e9 be
       -0.2837935 0.038784962 0.07693022 -0.4556458
0002e0 5f 7e 0a 3c c0 a9 82 bc 42 7c b9 bb 8b 50 a7 bb
       0.008452981 -0.015950084 -0.0056605646 -0.005106037
0002f0 03 2a aa bc bf 8e d0 3c 92 1d a2 bc 69 2e 04 bd
       -0.020771986 0.025458692 -0.01978949 -0.032270823
000300 40 7b 19 3b 17 d2 ce ba 9c 69 a5 bb 50 49 86 ba
       0.002341941 -0.0015779164 -0.00504799 -0.0010245237
000310 ce 65 93 bb 10 c1 b1 bc 99 ca 98 bb e2 69 f9 bc
       -0.00449822 -0.021698505 -0.0046628234 -0.030445997
000320 2f 87 f9 bb f5 d5 ed bc 99 46 df bc 36 3b 40 bd
       -0.007614992 -0.029032687 -0.027255343 -0.046931468
000330 13 d3 00 bc ff e0 8a bb b6 95 aa ba a4 39 5f 3b
       -0.007862824 -0.0042382474 -0.0013014588 0.0034061456
000340 d5 ec c6 bb 0b ca be bc f5 25 fa 3a 89 9f bc ba
       -0.006070713 -0.023289701 0.0019084798 -0.0014390807
000350 cc 59 cc bb 74 00 b7 3a de 18 52 bb fd a3 33 bb
       -0.0062362906 0.0013961927 -0.003205828 -0.0027410977
000360 d8 5c 53 3e ee d4 9a bc 69 5b 27 bd 31 47 ba 3d
       0.20640886 -0.01890036 -0.04085866 0.0909561
000370 0f e4 eb bc bd 99 a3 bd 07 9c ae bd 95 d4 eb be
       -0.02879527 -0.079883076 -0.085258536 -0.46060625
000380 94 2a 86 bc 5a 81 dd 3d d0 58 e7 be 66 86 49 bd
       -0.016377725 0.108156875 -0.45184946 -0.049200438
000390 09 70 78 3c b9 65 c2 bc fe f8 8c bc 1c f0 00 3d
       0.01516343 -0.023730146 -0.017208572 0.031478986
0003a0 da 2b f8 bc 4a 8e 52 bd e7 e4 9b 3c ee fa 27 bc
       -0.030294348 -0.05140523 0.019030048 -0.010252697
0003b0 8a e6 71 bd 89 66 e6 3b 3c 32 81 bc 12 c1 16 bd
       -0.05905775 0.007031266 -0.015771024 -0.03680522
0003c0 0e d6 33 b9 49 74 4a bc 1b 85 82 bb 83 03 08 3c
       -0.00017150512 -0.012356826 -0.0039831526 0.0083016185
0003d0 97 10 5a bc 8d dd 4f bb ee 40 14 3e 20 a6 75 be
       -0.013309619 -0.0031717748 0.14477894 -0.23989153
0003e0 6e 1f aa be 63 df 6a 3c fa 37 14 be 22 b6 d2 bc
       -0.33227104 0.014335486 -0.14474478 -0.025721613
0003f0 fb 94 09 3c 7c 03 22 bd 7b 19 02 bc d7 b1 48 3d
       0.008397336 -0.039554104 -0.007940645 0.048997726

0.bias f4 [128]
000000 80 f0 97 bd aa 81 82 bc a5 fb 07 bd 55 41 4e 3c
       -0.074189186 -0.01593097 -0.03319897 0.012588819
000010 7e a2 83 be bc 8b 6f bd 27 a6 46 bd 80 d4 32 bf
       -0.2570991 -0.05848287 -0.0484983 -0.698555
000020 d2 45 d5 be 3e 86 c0 bd 40 9a 42 be 69 67 e6 be
       -0.4165483 -0.09400605 -0.19004154 -0.4500077
000030 90 a3 01 bd c3 c8 b7 3e 05 98 78 bc 0b 2a 8d bd
       -0.031650126 0.35895357 -0.015172963 -0.06892785
000040 ee b5 22 bd 01 e7 63 3e c8 cb f5 bd 27 a6 56 bd
       -0.039724283 0.2225609 -0.12001759 -0.05240455
000050 77 a4 24 3f d0 d1 15 be f0 ab ce bc b5 00 4c bd
       0.64313453 -0.14630818 -0.02522847 -0.04980536
000060 20 b5 b9 bc 6b 2d 9f bd 6d 7e ae bd 05 62 95 bd
       -0.022669375 -0.07772335 -0.085202076 -0.07294086
000070 4d a1 99 bd f6 4c 84 bd c5 5a 98 be 2d 8d 51 bd
       -0.07501469 -0.06459992 -0.29756752 -0.051160026
000080 bc 72 15 bd ea aa 2e be 7f 4e 23 bd f6 35 88 bc
       -0.036486372 -0.17057386 -0.03986978 -0.016627293
000090 0b 00 86 bd 15 3d 0d bd 36 34 55 bd f9 5e 6e bd
       -0.06542977 -0.03448208 -0.052051745 -0.05819604
0000a0 2f 02 3d bd 68 35 3b bd b0 85 45 bd 70 58 c5 bd
       -0.04614466 -0.04570523 -0.048223197 -0.09636009
0000b0 68 04 a7 bc 0d f4 b1 bd 03 f8 31 be 40 25 0d be
       -0.020387843 -0.08689127 -0.17379765 -0.13783741
0000c0 e5 cd c9 bc 7b 17 48 bd 52 7c 84 bd 46 a8 d4 bd
       -0.024634311 -0.048850518 -0.06469025 -0.10383658
0000d0 00 0b f4 bd 11 06 f6 bc be 77 83 bd ba 34 53 bc
       -0.119161606 -0.03003219 -0.064193234 -0.012890989
0000e0 5e 09 3d bd db 90 97 bf a9 15 4f bd 8a 1b 4f bd
       -0.04615151 -1.1841081 -0.050557766 -0.050563373
0000f0 74 99 7d bd 55 4f 30 bd 34 5b f7 bd 9e 93 41 3f
       -0.061913922 -0.043044407 -0.120779425 0.7561587
000100 71 64 5e bd 3f 4a 3f 3d 1c d2 99 bd a9 fa 6c bd
       -0.054295007 0.046701666 -0.07510778 -0.057856236
000110 81 13 cb bd c0 6c 04 bd 46 82 c3 bd 26 31 bf bc
       -0.099158294 -0.032330275 -0.09546332 -0.023338865
000120 f3 f9 86 bd d2 48 d8 bd fd db dc bd c7 a5 f5 bd
       -0.06590643 -0.10560764 -0.10784147 -0.1199451
000130 9a a4 5e bd cd ae 6b bd 5e 4c 4c bd da 9f c4 bd
       -0.054356195 -0.05753975 -0.049877517 -0.09600802
000140 28 de 86 bd be 2f 95 bd 17 2c 76 bd ee fe 81 b8
       -0.06585342 -0.07284497 -0.06010064 -6.198684e-05
000150 72 5b df be bd a8 b5 bd dd 5f 90 bf 1f 39 d7 bc
       -0.43624455 -0.08870075 -1.1279255 -0.026272355
000160 31 86 1c bd 2e 56 9e bd af 43 36 bd 6a 53 c5 bd
       -0.038213912 -0.07731281 -0.04449814 -0.096350506
000170 23 dd a2 bd 28 8a e2 bc 1c 38 78 bd 44 99 a6 3e
       -0.07952335 -0.027653769 -0.060600385 0.32538807
000180 42 67 11 3e 36 d3 80 3e 1a ca 96 bd 16 f8 fb bd
       0.14199546 0.2516114 -0.073627666 -0.12303178
000190 d3 28 a4 bd 59 6c c6 bc 1d dc 6f bd ef 5c 7d bd
       -0.08015599 -0.024221586 -0.058559526 -0.061856207
0001a0 37 aa 08 b9 5c 5b f2 bd 91 92 1f bd e2 81 85 bd
       -0.0001303338 -0.11833832 -0.038958136 -0.06518914
0001b0 f0 e2 bf bd d3 f7 f0 bc 11 4e a9 bd 99 61 95 3e
       -0.09369457 -0.029415047 -0.08266843 0.29176024
0001c0 ef 72 cc 3e 46 73 a2 bd 0d b5 8a bd 9d de ce bd
       0.39931437 -0.07932143 -0.06772814 -0.10101054
0001d0 f5 39 00 3f f6 ff 95 be 28 c8 82 bc 09 07 db bd
       0.50088435 -0.29296845 -0.015964583 -0.10694701
0001e0 1a b8 d0 bd 39 01 81 bd 4c 7d 87 bd 5b 14 90 bd
       -0.101913646 -0.06299061 -0.06615695 -0.070351325
0001f0 6c b6 92 bd 05 d5 87 bd 3b 15 7b bd 72 00 7f bd
       -0.071637005 -0.06632427 -0.061299544 -0.062256284

2.weight f4 [128, 128]
000000 86 6f aa bb 7d c2 b5 3a 5d fd 94 b7 08 b9 dc 3c
       -0.005201283 0.0013867166 -1.7760956e-05 0.026943699
000010 cd 87 2b bc 99 90 a9 38 58 95 e3 b6 41 f7 87 3d
       -0.010469389 8.0854814e-05 -6.782513e-06 0.06638957
000020 31 d2 a1 3c bb 2e c9 ba e4 9b 0f 3c d9 1b 65 bd
       0.019753547 -0.001534901 0.008765195 -0.05593476
000030 38 76 ce 36 80 fd ab 3c 3b 66 2b b8 36 82 d1 ba
       6.153041e-06 0.020994902 -4.0864787e-05 -0.001598424
000040 2e 39 c6 39 e5 a7 aa bc 24 0f e5 ba 9f 85 be 36
       0.00037808105 -0.020832011 -0.0017475826 5.677997e-06
000050 a9 42 e2 bc 44 83 6c 3a 0b 8f 0f ba 49 ef 09 bc
       -0.027619677 0.00090222456 -0.0005476332 -0.008418866
000060 4d b4 0c ba 51 52 8c 3a 37 0f 08 bb 05 40 d0 bb
       -0.0005367443 0.0010705685 -0.0020761022 -0.006355288
000070 40 5e 91 b8 82 08 ea ba 58 03 28 bd a5 07 06 bb
       -6.931694e-05 -0.0017855319 -0.041018814 -0.0020451334
000080 56 d5 f0 b9 a0 aa 4d 33 57 31 23 3a dd cf b6 31
       -0.00045935315 4.7885464e-08 0.0006225309 5.3205285e-09
000090 81 9d 3b bc 0d 74 e6 bc 11 2d e7 3b 90 e0 a1 3b
       -0.011451126 -0.02813151 0.007054933 0.0049401
0000a0 d2 f5 35 3a 62 f4 8e bb d1 4e 9f ba 4a d0 fb bb
       0.0006941232 -0.004362629 -0.0012154226 -0.007684742
0000b0 d6 a9 cd ba fa b3 26 3c 56 cd 39 bc 7b 58 db bb
       -0.0015690874 0.010174746 -0.01134046 -0.0066938973
0000c0 39 ee 2b b8 13 fe e1 bc 8f fb 5b bb 26 ed e5 bb
       -4.099144e-05 -0.027586972 -0.0033566689 -0.0070167957
0000d0 32 1d 36 3c b8 d8 75 3c 0e a3 4f bb b2 2d ca b9
       0.011115359 0.015005283 -0.0031682882 -0.00038562488
0000e0 96 09 6a 39 e5 67 94 bc 57 cc ef ba 5b c8 b4 bc
       0.0002231955 -0.018115947 -0.0018295151 -0.022068193
0000f0 84 dc 8d bb 76 48 f6 ba ef 47 92 3c 4c 72 64 bd
       -0.004329266 -0.0018789906 0.017856566 -0.055773064
000100 24 ec d9 ba 8d e8 82 3c be 72 41 3b cb fa f4 34
       -0.0016626162 0.01598003 0.0029517855 4.5631018e-07
000110 ec 80 4c 37 f8 b5 52 bb 96 c5 a7 bb a3 4e a5 39
       1.21893645e-05 -0.003215192 -0.0051199896 0.0003152984
000120 6b de 8c 3c af 5f 06 ba ef 27 d5 3a 1d 99 6a 3b
       0.0171959 -0.00051259523 0.0016262511 0.003579683
000130 09 8e a9 bb f9 6d 98 3b 22 ce 78 bc 66 d9 da 37
       -0.0051744026 0.0046517816 -0.015185865 2.608886e-05
000140 26 e6 4b 3c 31 cf 4e 3c a6 c6 8f 3a c6 0d 00 00
       0.012445008 0.0126226405 0.0010969236 4.941e-42
000150 7f de 99 bc 53 f4 82 3a b8 5c 90 bd 10 7f 1f bb
       -0.018782852 0.0009991027 -0.07048935 -0.002433721
000160 09 bd 01 39 3e 10 1c ba 68 fa 9f bc aa f8 be 3c
       0.0001237282 -0.0005953348 -0.019528583 0.023311932
000170 7e ef d0 3c b9 71 58 bb e8 d6 d7 39 b4 fe 51 bc
       0.025504824 -0.0033026768 0.00041168113 -0.012817074
000180 e5 d8 58 bd 55 f1 b2 ba 5f c6 b9 b9 ca 4c 1f bc
       -0.05294122 -0.0013652245 -0.00035433748 -0.009722898
000190 dc 6a a9 39 71 8c c2 b8 4e 4b 96 38 1c 76 92 39
       0.00032313808 -9.2768e-05 7.166584e-05 0.00027935288
0001a0 b6 0d 00 00 aa 10 99 39 86 de 1f bb 5a 63 12 3b
       4.919e-42 0.0002919485 -0.002439411 0.002233705
0001b0 29 7b a5 3b 97 60 a0 39 81 36 8e 3a 93 91 55 3d
       0.005050082 0.00030589543 0.0010849984 0.052140784
0001c0 f0 5a 61 bd a2 fc f7 ba 7f 0b 0c bd 4f 47 63 bc
       -0.055018365 -0.0018919895 -0.03419065 -0.013871982
0001d0 33 97 04 bd bf 51 ad 3c 3e 8c 27 a1 75 b8 01 bc
       -0.032370757 0.021157144 -5.676741e-19 -0.007917513
0001e0 e2 a4 b1 3a 17 b0 f2 b8 11 fb 6f bb 00 27 8a 3c
       0.0013553167 -0.000115722585 -0.0036618153 0.0168643
0001f0 34 ad c1 b6 39 9c bf 37 7c fb d6 31 2a be 72 bb
       -5.7720117e-06 2.2841721e-05 6.25681e-09 -0.0037039616
000200 ac e8 a1 bb d3 81 99 b9 fc 35 49 b7 4c 00 ee 3c
       -0.0049410667 -0.0002927916 -1.1993103e-05 0.029052876
000210 28 93 56 bb 20 8e a6 38 64 2f 57 b7 a6 3c 46 3d
       -0.003274152 7.94197e-05 -1.2826033e-05 0.048397683
000220 65 fb af 3c 32 bc 09 bb 3e 29 d4 3b e0 d7 8f bd
       0.021482179 -0.0021016714 0.006474643 -0.07023597
000230 74 20 cd 36 c8 28 b3 3c b8 69 32 b8 f6 8e d9 ba
       6.113254e-06 0.021870032 -4.2536965e-05 -0.0016598392
000240 fb a4 b3 3a 10 2f 90 bc 20 ba 17 bb 3a 89 e6 36
       0.0013705784 -0.017600566 -0.002315171 6.8705094e-06
000250 8b d8 4f bc 57 33 ad ba f1 d6 f6 b9 9d 00 ff bb
       -0.012685905 -0.0013214153 -0.0004708092 -0.0077820555
000260 cb 27 ff b9 18 39 76 3a 65 b1 ce b9 78 ef c5 bb
       -0.00048667038 0.0009392663 -0.0003942355 -0.00604051
000270 5a ce 87 b8 5e da fb ba 8b 77 d0 bc f6 79 19 bb
       -6.4757376e-05 -0.0019214859 -0.025447628 -0.0023418642
000280 a2 21 e2 b9 9b e9 a7 35 4b 0b 4b 3a fe 95 9f 31
       -0.00043131137 1.2510458e-06 0.0007745518 4.644561e-09
000290 8d a4 93 bc a5 20 10 bd 53 2d ac 3b 60 48 d0 3b
       -0.0180228 -0.035187382 0.0052544265 0.006356284
0002a0 8c 50 00 3a c5 56 05 3a 1b 09 b4 ba d4 fc eb bb
       0.0004894815 0.0005086477 -0.0013735624 -0.0072017703
0002b0 ec b6 bf ba c6 d6 1f 3c 66 91 29 bc 95 f3 f8 bb
       -0.0014626659 0.009755796 -0.010349607 -0.0075973966
0002c0 74 76 24 b8 46 4d a9 bc 0e 93 48 bb 96 2a df bb
       -3.9210965e-05 -0.02066673 -0.003060523 -0.0068104966
0002d0 53 af 0e 3c 24 6d 91 3b 64 40 42 bb 7d 65 b0 b9
       0.008708793 0.0044380594 -0.002964043 -0.0003364495
0002e0 0e 4e 0f 3a e7 88 e5 bd ca 63 e5 ba 55 4f b6 bc
       0.0005466648 -0.11207753 -0.0017501053 -0.022254625
0002f0 aa 76 87 bb b5 2f e4 ba 2f 52 6c 3c 8a 1e 52 bd
       -0.004134019 -0.0017409237 0.014423891 -0.051298656
000300 d6 f7 cc b9 42 16 67 3c 10 69 12 3b 5d 0d 95 34
       -0.00039094564 0.014104428 0.0022340454 2.7763136e-07
000310 2f 3c 03 37 ea e7 64 bb d7 9e bc bb 27 a1 9f 39
       7.822221e-06 -0.003492827 -0.00575624 0.0003044691
000320 1c 87 87 3c 6b 02 5b b9 b1 36 ca 3a ed ce 54 3b
       0.016543917 -0.00020886368 0.0015427676 0.003247197
000330 4c 7c a2 bb 0c 75 15 3b e8 38 4b 3c e3 01 34 38
       -0.004958665 0.002280536 0.012403704 4.29171e-05
000340 91 25 54 3c 14 4d 4a 3c 7d a7 83 3a c7 0d 00 00
       0.01294841 0.012347478 0.0010044422 4.942e-42
000350 57 01 4b bc fb 97 6c 3a a0 b9 8d bd 46 57 8b ba
       -0.012390456 0.00090253324 -0.06920171 -0.0010630868
000360 61 67 fe 38 63 d7 c4 ba 1d 45 95 bc 8d 3a 33 3c
       0.0001213092 -0.0015017804 -0.018221432 0.010939253
000370 0a 62 b3 3c 39 6d 92 bb b2 d2 d4 39 1a 35 da ba
       0.021897335 -0.0044685868 0.0004059277 -0.0016647906
000380 6f 59 24 bd 47 d9 d7 bb e6 4a ae b9 8e e4 1f bc
       -0.040124353 -0.006587181 -0.0003324367 -0.0097590815
000390 74 e3 d1 39 28 cf 3b b8 40 21 80 38 9f fc 92 39
       0.00040033052 -4.4777204e-05 6.109709e-05 0.00028035507
0003a0 b9 0d 00 00 95 c5 26 3a c3 f0 11 bb 24 90 12 3b
       4.923e-42 0.00063618395 -0.002226875 0.0022363747
0003b0 20 d1 ae 3b 32 30 a8 39 c2 62 7d 3a 0a e8 8a 3c
       0.0053349882 0.00032079365 0.00096659 0.016956348
0003c0 7d 5a 3c bd cb 3d df ba a9 22 3a bd 6f 6e 59 bc
       -0.045984734 -0.0017031966 -0.04544321 -0.013270958
0003d0 b9 d5 2b bc a9 21 9b 3c 0a 62 d5 a0 96 53 02 bc
       -0.010487967 0.018936949 -3.614848e-19 -0.007954499
0003e0 bf ce 20 3a b2 ee d8 b8 b1 fa 61 bb 1e 65 55 3c
       0.0006134323 -0.00010344143 -0.00344817 0.0130245965
0003f0 61 8a b3 b6 55 87 8e 39 63 0a dd 31 53 af 79 bb
       -5.350725e-06 0.0002718518 6.4331274e-09 -0.0038098886

2.bias f4 [128]
000000 b4 d0 19 40 7f 48 13 40 2c 71 0a 40 33 88 0a 40
       2.4033632 2.3012998 2.1631575 2.164563
000010 8d 82 f8 3f 73 05 11 40 53 f8 fb 3f 4f 65 3f 40
       1.9414841 2.2659576 1.9685158 2.9905584
000020 b8 a0 f2 3f f3 2d f4 3f 40 63 f7 3f 6c bc fe 3f
       1.8955297 1.9076523 1.9327164 1.9901252
000030 bb 00 38 3f e9 e5 00 40 d4 3a e1 3f 18 18 01 40
       0.71876115 2.0140326 1.7596078 2.0170956
000040 bf c2 1a 40 86 55 f1 3f 3d ef f4 3f cb 10 21 3f
       2.4181364 1.8854225 1.913551 0.6291625
000050 a2 4c f4 3f 06 42 13 40 2f dc d6 bf f8 8c 0d 40
       1.9085886 2.3009048 -1.6785945 2.211729
000060 f4 ea a9 3f f6 de 02 40 5b 30 1b 40 13 b1 fe 3f
       1.3274827 2.0448585 2.4248264 1.9897789
000070 03 53 03 40 05 e4 bf bd 44 1c d9 3f dd 21 5c 3b
       2.0519416 -0.09369663 1.6961751 0.003358952
000080 ce 7b 4c 3f 78 da e8 3f 5d ec 08 40 98 d5 3f 40
       0.7987641 1.8191671 2.1394265 2.9974117
000090 94 ac 1a bb 81 b6 00 40 d2 08 dd 3f 45 6c 07 40
       -0.00236014 2.0111392 1.7268317 2.1159832
0000a0 f5 83 01 40 4f 66 09 40 01 28 12 40 06 10 02 40
       2.023679 2.1468694 2.2836916 2.032228
0000b0 f9 1f f4 3f d1 8c e0 3f 56 f8 fe 3f 86 42 00 40
       1.9072257 1.7542974 1.9919536 2.0040603
0000c0 9f d7 eb 3f eb 0c 00 40 01 cd 19 40 28 a7 be 3f
       1.8425177 2.0007885 2.4031374 1.4894762
0000d0 fe 4b 05 40 45 53 1a 40 34 5e e5 3f 4f b4 d7 3f
       2.0827632 2.4113324 1.7919374 1.6851901
0000e0 57 34 12 40 e7 cc 1a 40 b1 db 96 3f 90 60 ca 3f
       2.2844446 2.4187562 1.1785794 1.5810719
0000f0 20 f5 35 40 3b 0c e1 3f f4 b5 f4 3f 97 f8 01 40
       2.8430862 1.7581857 1.9118028 2.0307977
000100 15 f2 54 3d 30 c8 05 40 4e de e7 3f ef 2c 93 3e
       0.05198868 2.0903435 1.8114717 0.2874522
000110 a8 b6 eb 3f 02 9d b6 3f cf aa ae 3f e5 3f 01 40
       1.8415117 1.4266665 1.3645877 2.0195248
000120 6d 6a be 3f 3e 79 11 40 e8 89 8b 40 00 88 08 40
       1.4876229 2.273025 4.3605843 2.1333008
000130 fe d9 fd 3f e8 15 a3 3f ad 46 17 40 d7 5a 2e 3f
       1.9832151 1.274106 2.3636887 0.6810736
000140 37 39 07 40 15 20 eb 3f 2a 4a 81 40 a7 a4 90 3f
       2.112867 1.8369166 4.040303 1.1300248
000150 c3 6b ab 3d 41 e1 17 40 3e e6 55 3e 5b 87 02 40
       0.08370163 2.3731234 0.20888612 2.0395114
000160 a3 d2 01 40 e6 61 f9 3f 36 6b df 3f 3a 0c a8 3f
       2.0284812 1.9483001 1.7454593 1.3128731
000170 39 5c 00 40 51 e4 d4 3f f1 2a 02 40 2e 60 fb 3f
       2.0056288 1.6632177 2.033871 1.9638727
000180 aa b9 fc 3f 0e 93 0a 40 b6 39 eb 3f 30 53 0c 40
       1.974416 2.1652255 1.8376987 2.1925774
000190 37 b8 02 40 b9 8a f9 3f 77 4c 92 3f 78 50 fa 3f
       2.0424936 1.949546 1.1429585 1.9555807
0001a0 00 fa 01 40 f0 02 09 40 e5 f4 fb 3f a2 8d f4 3d
       2.0308838 2.1408043 1.9684111 0.11941077
0001b0 df 5b e5 3f 31 22 fb 3f 6c 47 eb 3f 49 cb ed 3f
       1.7918662 1.9619809 1.8381171 1.8577663
0001c0 5b ba fb 3f 09 04 b1 3f 56 e4 23 40 5f 72 37 40
       1.9666246 1.3829356 2.5608115 2.8663557
0001d0 33 86 f3 3f fc 05 99 3f 5d 4f a3 3f f7 e9 ea 3f
       1.9025329 1.1954951 1.2758595 1.835265
0001e0 f4 77 0d 40 6a 4b f9 3f eb d5 c2 3f 1e d4 92 3f
       2.2104464 1.947614 1.5221533 1.1470983
0001f0 a7 17 a7 3f e0 c8 f8 3f 22 dc e9 3f 43 e2 1a 40
       1.3054093 1.9436302 1.8270304 2.42006

4.weight f4 [4, 128]
000000 f6 aa 93 3f b0 be 89 3f 5a f3 93 3f 97 35 91 3f
       1.1536548 1.0761318 1.155864 1.1344479
000010 f9 12 8a 3f 72 ef 84 3f 13 9b 80 3f 96 f1 2c c0
       1.078704 1.0385573 1.0047325 -2.7022452
000020 4d 01 18 3f 12 8f 18 3f 1a 72 2b 3f 72 67 2d 3f
       0.59376985 0.5959331 0.6697098 0.6773597
000030 59 f2 16 3e 51 98 89 3f 5f 93 36 3f 30 73 86 3f
       0.14740886 1.0749608 0.7131862 1.0503902
000040 67 98 93 3f 3b e1 25 3f 45 83 7b 3f cc 04 c3 bf
       1.1530885 0.647968 0.98247176 -1.5235839
000050 46 3d 7a 3f eb 11 90 3f 37 4b ca bf 9c c0 93 3f
       0.97749746 1.1255468 -1.5804204 1.1543155
000060 61 ec bb 3e f7 52 89 3f b6 51 96 3f 92 d4 8a 3f
       0.3670378 1.0728444 1.1743686 1.0846121
000070 df ed 38 3f 32 c4 3c 3f 78 99 21 3f a0 8c 15 b7
       0.7223796 0.7373687 0.631248 -8.913834e-06
000080 4c c1 98 3e 08 d6 6a 3f 3f a3 8e 3f a4 dd 43 c0
       0.29834974 0.91732836 1.1143569 -3.0604029
000090 5b 12 9b b6 df 73 89 3f a6 24 5a 3f 9f bd 51 3f
       -4.621497e-06 1.0738486 0.8521217 0.81929964
0000a0 43 9b 88 3f df b4 94 3f 81 e6 8b 3f 27 cb 87 3f
       1.0672382 1.1617697 1.0929719 1.0608872
0000b0 0f e1 84 3f 0d ef 83 3f 69 c6 85 3f f2 d1 84 3f
       1.0381182 1.0307328 1.0451175 1.037657
0000c0 c8 b5 72 3f 15 1a 38 3f 25 a1 90 3f 1d 52 f2 3e
       0.94808626 0.719148 1.1299177 0.47328272
0000d0 24 22 7b 3f 7a 9e 93 3f 36 52 92 3f a8 95 5e 3f
       0.9809897 1.1532738 1.1431339 0.8694711
0000e0 82 94 9b 3f d9 56 9c 3f 6c 66 e6 3e 5d 8d 4c 3f
       1.2154696 1.2214004 0.45000017 0.79903203
0000f0 97 f5 0c c0 33 10 03 3f 21 ea 2f 3f e7 44 84 3f
       -2.2024896 0.51196593 0.6871663 1.0333527
000100 8b 3b 5b bd 51 6e 42 3f 5e 2e 13 3f 7a a7 5e bf
       -0.05352358 0.7594958 0.57492626 -0.869743
000110 44 b4 9b 3f 8d 46 0b 3f 2d 14 4b 3e 0f 5e 86 3f
       1.2164388 0.54404527 0.19831915 1.0497454
000120 37 bd d8 3e ae ba 9a 3f ff 81 a4 bf 84 73 8c 3f
       0.4233186 1.208822 -1.2852172 1.0972753
000130 f1 64 2c 3f 17 99 f0 3e 42 3a 90 3f 42 32 9d 3e
       0.67341524 0.46991798 1.1267779 0.30702406
000140 04 e4 41 c0 87 15 1e 3f 46 60 31 c0 88 70 2b 3f
       -3.029542 0.617516 -2.771501 0.66968584
000150 c4 d4 91 3b b9 ff 92 3f 23 71 a4 be b7 51 88 3f
       0.0044504125 1.148429 -0.32117566 1.0649937
000160 43 aa 31 3f ff 48 2a 3f c8 40 17 3f 09 ee 88 3f
       0.69400424 0.66517633 0.59083223 1.0697643
000170 8c 98 35 3f 1e bd 1c 3f e0 1f 89 3f 50 7e 29 3f
       0.70935893 0.6122607 1.0712852 0.6620836
000180 1f af 8b 3f b9 78 93 3f 80 87 17 3f 79 81 95 3f
       1.0912818 1.1521217 0.5919113 1.1680137
000190 64 0a 41 3f e0 4d 7e 3f 3e 27 8e 3f 74 2c 87 3f
       0.7540648 0.9933758 1.1105726 1.0560441
0001a0 91 f8 35 3f b1 34 43 3f c1 d9 83 3f 29 0e e9 be
       0.7108241 0.76252276 1.0300828 -0.45518616
0001b0 3c f2 0e 3f 84 71 32 3f 72 98 14 3f 63 fc 6f 3f
       0.5583837 0.6970446 0.58045113 0.93744487
0001c0 df 6f 85 3f db f2 91 3e 1c 7e a1 3f 9a c6 54 c0
       1.0424765 0.28505597 1.261661 -3.3246217
0001d0 71 f9 7c 3f 38 6b a7 bf 68 d3 05 3e 6d 6b 1c c0
       0.9881812 -1.3079596 0.13068926 -2.4440567
0001e0 40 45 87 3f 05 ed 30 3f 16 da 9f 3f 3c 5d 47 3f
       1.0568008 0.69111663 1.248843 0.7787664
0001f0 ec 37 0a 3f c7 12 86 3f b6 67 20 3f ec 78 94 3f
       0.5399158 1.047448 0.6265825 1.1599402
000200 11 64 9f 3f b5 4e 95 3f bc cd 9d 3f 4a 23 97 3f
       1.2452413 1.1664644 1.232841 1.1807644
000210 12 e0 87 3f f8 1f 97 3f 72 78 8e 3f 14 d8 70 c0
       1.0615256 1.1806631 1.1130507 -3.7631884
000220 10 52 55 3f ad a0 83 3f d5 2a 70 3f cb 63 7d 3f
       0.8332834 1.0283409 0.93815356 0.98980397
000230 fd 10 69 3d 15 7b 8d 3f 7a 4a 61 3f e5 f3 93 3f
       0.056900967 1.1053187 0.8800427 1.1558806
000240 f1 6c a1 3f 3f 0f 62 3f f8 e6 89 3f 6e c0 c3 bf
       1.2611371 0.88304514 1.0773611 -1.52931
000250 fd ad 86 3f 99 01 97 3f 1d a6 18 bf a1 5a 9d 3f
       1.0521847 1.1797363 -0.5962847 1.2293283
000260 02 f0 ee 3e 63 cd 96 3f 51 d4 96 3f 80 91 89 3f
       0.46667486 1.1781429 1.1783544 1.0747528
000270 09 f9 69 3f 84 b1 81 3e e3 15 59 3f ea b1 3f b5
       0.9139562 0.25330746 0.8479902 -7.1411944e-07
000280 a6 fe 8a 3e 69 8e 75 3f fa 39 9f 3f 81 78 63 c0
       0.27147406 0.95920426 1.2439568 -3.55423
000290 c8 33 2c af fc 54 9d 3f d1 ed 6d 3f e2 6e 7e 3f
       -1.5661705e-10 1.229156 0.92941004 0.99387944
0002a0 1d 48 9a 3f 84 7a 9a 3f 88 14 9f 3f c6 e6 8c 3f
       1.2053257 1.2068639 1.2428141 1.1007926
0002b0 3d 82 81 3f 96 10 86 3f 9c f7 8d 3f a5 97 90 3f
       1.011787 1.0473812 1.1091189 1.1296278
0002c0 4c 0f 7e 3f 59 5b 76 3f 27 24 a1 3f d2 10 21 3f
       0.9924209 0.96233135 1.2589158 0.6291629
0002d0 9a 7e 68 3f ea f6 9e 3f d5 66 84 3f 52 6c 54 3f
       0.9081818 1.2419102 1.0343882 0.82977784
0002e0 b7 0d aa 3f e6 f4 77 3f d3 32 99 3e c9 c5 43 3f
       1.3285435 0.9685806 0.29921588 0.7647367
0002f0 fd dc 70 c0 d7 95 5e 3f 01 5e 71 3f c7 7b 95 3f
       -3.763488 0.8694739 0.94284064 1.1678399
000300 cf 10 a6 bd 79 b9 73 3f 83 0f 4d 3f d0 79 8c bf
       -0.08108675 0.95204884 0.80101794 -1.0974674
000310 4c 85 90 3f a5 8e 08 3f 7e 36 de 3e 04 8b 9b 3f
       1.1290679 0.5334266 0.4340095 1.2151799
000320 1e 64 24 3f 31 b9 9e 3f 09 d3 06 c0 38 d1 a1 3f
       0.64215267 1.2400266 -2.1066306 1.2641973
000330 94 2e 6f 3f 63 a0 e1 3e d7 55 9b 3f 57 47 c4 3d
       0.9343045 0.44067678 1.2135571 0.095839195
000340 e9 dc 3e c0 b2 e6 77 3f 14 e7 7c c0 3b b7 6e 3e
       -2.9822333 0.9683639 -3.951604 0.23312084
000350 37 4e 22 3a 74 51 8f 3f ed be 15 be 73 e3 8c 3f
       0.00061914645 1.1196733 -0.14623614 1.1006912
000360 0c 34 77 3f af 02 63 3f 55 b7 58 3f 88 44 69 3f
       0.9656379 0.8867597 0.8465474 0.91120195
000370 87 bd 68 3f 15 07 3f 3f 44 2a 98 3f fa 6f 70 3f
       0.90914196 0.7462018 1.1887898 0.9392086
000380 b7 ce 9b 3f 4e 44 91 3f a1 01 5f 3f dc 88 9b 3f
       1.2172459 1.134897 0.8711186 1.2151141
000390 f9 d3 77 3f 95 af 96 3f ba 47 7f 3f 45 b1 8e 3f
       0.9680782 1.1772333 0.9971882 1.1147848
0003a0 ab 2b 71 3f ea 53 77 3f 0d e8 88 3f 5e d2 76 bf
       0.9420726 0.9661242 1.0695816 -0.96414745
0003b0 5f 52 55 3f 44 b6 6e 3f c0 74 5f 3f c9 54 80 3f
       0.83328813 0.93246865 0.8728752 1.0025874
0003c0 f1 d5 89 3f 7c 43 de 3e 61 f9 9a 3f 60 40 79 c0
       1.0768415 0.43410861 1.2107354 -3.8945541
0003d0 90 47 8a 3f da 07 b4 bf 91 5d a2 3e e0 5d 08 c0
       1.0803089 -1.4064896 0.3171201 -2.1307297
0003e0 7c 28 71 3f 94 39 69 3f 5d 60 30 3f f8 6c 04 3e
       0.942024 0.9110348 0.6889704 0.12932193
0003f0 4d bd 0f 3f 61 9a 87 3f 31 3d 75 3f fa 1f a0 3f
       0.56148225 1.0593988 0.95796496 1.2509758

4.bias f4 [4]
000000 f4 cc ff 3f 76 ba 3f 3f 5b 62 54 be 6c 36 23 bf
       1.9984422 0.7489389 -0.20740645 -0.63754916
