best_model_standard_scaling.pth (torch, 74640 bytes, 6 tensors)

0.weight f4 [128, 6]
0	0x3f09a2fb	0.53764313
1	0x3faca85a	1.3488877
2	0xbef1b75f	-0.47210214
3	0xc002a88b	-2.041537
4	0xbec59b7c	-0.38595188
5	0xbe703b36	-0.23460087
6	0xbbdadfbb	-0.006679503
7	0xc088f0cf	-4.2793956
8	0x3fa18343	1.2618183
9	0x3e4330ed	0.19061632
10	0xc02ca400	-2.6975098
11	0x3ea7a383	0.32741937
12	0x3ec86b24	0.39144242
13	0x3f999b7b	1.2000574
14	0xbfe28ad4	-1.7698617
15	0xc040bd80	-3.0115662
16	0xbeb47267	-0.35243532
17	0xbf352b61	-0.70769316
18	0xbfa40405	-1.2813727
19	0x3e64dc44	0.2234965
20	0x3f2d1a81	0.67618567
21	0x3e92a646	0.28642482
22	0xbecee007	-0.40405294
23	0xbe43147d	-0.19050784
24	0x40e13b88	7.038517
25	0x40e115d4	7.0339146
26	0xc19b2cf5	-19.396952
27	0x40a42978	5.130062
28	0x4088a2c9	4.269871
29	0x3c3dba92	0.011580126
30	0x400109f0	2.0162315
31	0x4065a7c1	3.588364
32	0xc03ed719	-2.9818785
33	0x406af3a8	3.6711216
34	0x401a5757	2.4115808
35	0x3f01d2de	0.5071238
36	0x406ea043	3.7285316
37	0x40cf562a	6.479268
38	0xc11587ce	-9.345655
39	0x410726db	8.446986
40	0x40dba8e5	6.864367
41	0x3e9f6d2c	0.3113798
42	0x3de8fc77	0.11376279
43	0x3f99d3ff	1.2017821
44	0xbed081aa	-0.40723926
45	0xbfda0cd0	-1.703516
46	0xbe428e19	-0.18999518
47	0xbe3fb452	-0.1872113
48	0xc0b29955	-5.5812173
49	0xbfa722b1	-1.3057462
50	0x4065a956	3.5884604
51	0x3f1b92ee	0.6077107
52	0xbffd1382	-1.9771578
53	0x3deede93	0.116635464
54	0xbf538cc5	-0.8263667
55	0x3f900f6b	1.1254705
56	0xbe529df0	-0.20568061
57	0xbf95cac0	-1.1702499
58	0xbf53d80c	-0.82751536
59	0xbf191343	-0.59795016
60	0x3f5ab6e2	0.8543531
61	0xbe976d13	-0.29575405
62	0x3fa7cfc2	1.3110278
63	0xc02f453c	-2.7386007
64	0xbf8b280f	-1.08716
65	0xbfb355e1	-1.4010583
66	0xc0765fe9	-3.849604
67	0xc006e79f	-2.107887
68	0x3e8fc788	0.28081918
69	0x4005690f	2.0845373
70	0x3f5a7293	0.85331076
71	0xbe41e68e	-0.18935606
72	0xbdbcaf01	-0.09213067
73	0xbefd7663	-0.49504384
74	0x3cef6e3d	0.02922737
75	0x3bbe8f26	0.0058154045
76	0x3ed0bd6a	0.4076951
77	0xbc1e5b2c	-0.009665292
78	0xc0b288c3	-5.5791945
79	0xbf957bef	-1.1678447
80	0x3fb6d672	1.4284194
81	0xbf2d6334	-0.67729497
82	0xc0019b70	-2.0251122
83	0xbe6fad89	-0.23406042
84	0xbf87e40b	-1.0616468
85	0xbf26e08c	-0.6518638
86	0xbfb8276d	-1.4387032
87	0x3f7ef877	0.9959788
88	0xbf42c951	-0.76088434
89	0xbeb6f2f0	-0.35732222
90	0xbf916f39	-1.1362067
91	0x3df44bac	0.11928496
92	0xbf3f0e42	-0.7463113
93	0xbec0873f	-0.37603185
94	0xbe52b85e	-0.20578143
95	0xbe4797d0	-0.19491506
96	0xbf9f6297	-1.2451962
97	0x3f0b1849	0.5433393
98	0x3f21d9b2	0.632228
99	0x3ed13695	0.40861955
100	0xbf46eefe	-0.77708423
101	0xbe0f32af	-0.13984178
102	0x3fa0166f	1.2506846
103	0x3fd78853	1.6838478
104	0xbf672a3a	-0.9029881
105	0x3d830035	0.06396524
106	0x3f23c031	0.63965136
107	0xbeb9c462	-0.3628264
108	0x3d8acf2a	0.06777795
109	0xbd5c7a0a	-0.053827323
110	0x3cd5dcd1	0.02610627
111	0x3c19ab22	0.00937918
112	0x3e8f52d3	0.27992877
113	0xbe2989da	-0.16556492
114	0xbe758403	-0.2397614
115	0x3f31f25d	0.6951044
116	0xbfd62868	-1.6731081
117	0xc004373d	-2.0658715
118	0xbe55cfa4	-0.2087999
119	0xbcdc5496	-0.026895802
120	0xc1012a2d	-8.072797
121	0x3e033dcc	0.12816542
122	0x3e09e679	0.13466825
123	0x3f89be8d	1.0761276
124	0x3f36d3c5	0.71416885
125	0xbd7a1361	-0.061053637
126	0x3f479319	0.7795883
127	0xbd96cc09	-0.07363135
128	0xc081be37	-4.0544696
129	0x4025a7c6	2.588365
130	0x3ea30c93	0.3184553
131	0xbfd271fe	-1.6441038
132	0xbed80c84	-0.4219705
133	0xbd5f8f6f	-0.05458015
134	0x3e6e697b	0.23282425
135	0x3e974c81	0.29550555
136	0x3be33ca1	0.0069347178
137	0xbca2ae23	-0.019858425
138	0xbfd28ac0	-1.6448593
139	0xbf80c600	-1.0060425
140	0x3f1c0b6d	0.60954934
141	0x3f5f543a	0.87237895
142	0xbf4a19ea	-0.7894579
143	0xbd8c6462	-0.06855084
144	0xc08838a5	-4.2569146
145	0x3f969199	1.1763183
146	0xbfe8f484	-1.819962
147	0xc0d9d6bc	-6.8074627
148	0xbfb46081	-1.4091951
149	0xbe0c88b5	-0.13724025
150	0xbf9bf719	-1.2184783
151	0xbf6e9423	-0.9319479
152	0x400f12d4	2.2355242
153	0x408368b5	4.1065316
154	0x3f1c1d09	0.60981804
155	0x3e6a266d	0.22866221
156	0xc075032f	-3.8283193
157	0x3e9f5137	0.3111665
158	0x40101453	2.2512405
159	0x3f30055c	0.6875818
160	0x3f54b2cc	0.8308532
161	0x3e87c23d	0.2651538
162	0xbfba3047	-1.4545983
163	0xbf331d0b	-0.6996619
164	0x3f181609	0.5940862
165	0x3f637e48	0.88864565
166	0x3e342729	0.17593063
167	0xbe97e3be	-0.2966594
168	0xbf8c77f4	-1.0974107
169	0x3fd0fe7a	1.632766
170	0xbecbb732	-0.39788204
171	0x3ff3e0c4	1.9052968
172	0xbf03ac36	-0.5143465
173	0xbd1e74df	-0.038685676
174	0xbf42ead0	-0.76139545
175	0xbf75c51a	-0.9600388
176	0x3ead086a	0.33795482
177	0x3e75c62e	0.24001381
178	0x3f0d5833	0.55212706
179	0xbae485a2	-0.0017434845
180	0x3fe2ca96	1.7718074
181	0xbf5590ae	-0.8342389
182	0xc07e4d2c	-3.9734602
183	0x3fb47fd3	1.4101509
184	0xbfcf4f10	-1.6196003
185	0xbfaf375b	-1.3688768
186	0xbf8b113d	-1.0864636
187	0x3d35d819	0.04439554
188	0x3d7eca2f	0.062204536
189	0x3f940d4f	1.1566561
190	0xbf225362	-0.6340848
191	0xbdee59d9	-0.11638231
192	0xbf832961	-1.0247003
193	0xbf0cd5dc	-0.55013824
194	0x3eb9414f	0.3618264
195	0x3e954a08	0.29158044
196	0xbe056267	-0.13025819
197	0xbe5b5cc3	-0.21422105
198	0xc0aaa168	-5.332203
199	0xc0a05b93	-5.0111785
200	0x40a1268d	5.035956
201	0xbf78fa81	-0.9725724
202	0xc05ea6c9	-3.4789298
203	0x3e0620b2	0.1309841
204	0xc03c7c49	-2.9450858
205	0xbfa99a77	-1.3250264
206	0x404d08c6	3.2036605
207	0x401b889f	2.4302137
208	0xbf1db397	-0.6160216
209	0x400f04af	2.2346609
210	0xc08f5d6d	-4.4801545
211	0xc0a6d944	-5.2140217
212	0x3b530b0b	0.0032202627
213	0xc0bb6886	-5.856509
214	0xc0e20fd6	-7.064433
215	0x3e005a4a	0.12534443
216	0xbf5fd80a	-0.87439024
217	0x3e966064	0.29370415
218	0xbbe6fc85	-0.0070491456
219	0x3f7526d7	0.9576239
220	0xbf541d11	-0.8285685
221	0xbe8b9760	-0.27263927
222	0xbf3501d7	-0.7070593
223	0x3f32d385	0.69854003
224	0x3eba8d5e	0.3643598
225	0x3edd750f	0.4325337
226	0xbf3ff980	-0.7499008
227	0xbd4ffd74	-0.05077882
228	0xbed5c7e2	-0.4175406
229	0xbf0e5c67	-0.55609745
230	0x3e1aa209	0.15100874
231	0x3e38ddfe	0.18053433
232	0x3e5b0bb6	0.21391186
233	0xbc9662ea	-0.018357713
234	0xbfb3a5cd	-1.4034973
235	0x3eb6c149	0.3569434
236	0x3f292a33	0.66080016
237	0x404bb569	3.1829474
238	0x3f122054	0.5708058
239	0xbe313f9c	-0.17309421
240	0xbf17ae0e	-0.5924996
241	0x3eab349a	0.3343857
242	0x3e00a8c8	0.12564385
243	0xbe820b6a	-0.25399333
244	0xbeabfd48	-0.33591676
245	0xbe4d1d86	-0.20030794
246	0xc02f0cfd	-2.7351677
247	0xbf94ece2	-1.1634791
248	0x3fbde473	1.4835342
249	0x3f7fada1	0.9987431
250	0x3bf0a354	0.007343689
251	0xbedf742a	-0.43643314
252	0xc02fb417	-2.7453668
253	0x4038e289	2.8888266
254	0xc13a68a3	-11.650546
255	0x4035363f	2.831436

0.bias f4 [128]
0	0xc0646330	-3.568554
1	0xc072f3fb	-3.7961414
2	0xc07a31e6	-3.9092956
3	0xc02b0fc1	-2.6728365
4	0xc134ca3f	-11.2993765
5	0x3fc3dbdb	1.530147
6	0xc0d95eac	-6.7928066
7	0xc02d30f1	-2.7061121
8	0xc11b038a	-9.688364
9	0xc05aad40	-3.4168243
10	0xbfcca59e	-1.5988042
11	0xc0b6e329	-5.7152295
12	0xbe806ebc	-0.25084484
13	0xc0a761eb	-5.230703
14	0xc08c3ced	-4.382437
15	0xc05cddfd	-3.451049
16	0xc029316b	-2.6436412
17	0x3fc24172	1.5176222
18	0xbf822ab0	-1.0169277
19	0xc037df01	-2.872986
20	0x3c65ddc9	0.0140299285
21	0xbf9d1cef	-1.2274455
22	0xbf9e9b81	-1.2391206
23	0xc08382ad	-4.1097016
24	0xc108bcad	-8.546063
25	0xc1075e55	-8.46053
26	0xc0945650	-4.635536
27	0xc05fcb26	-3.4967742
28	0x3e83b31e	0.25722593
29	0xbfdaa1a9	-1.7080585
30	0x40a2d752	5.088784
31	0xc04f8552	-3.2425122
32	0xc02907e3	-2.6411064
33	0xc001c4db	-2.02764
34	0x40d89f2f	6.7694316
35	0x40315ccb	2.7712886
36	0xc04957c7	-3.1459825
37	0xbff079fb	-1.8787225
38	0xbf8bb85b	-1.0915636
39	0x40acd0e9	5.4005017
40	0xbfc6ac16	-1.5521266
41	0xc09dd547	-4.932285
42	0xc1649cac	-14.28825
43	0xc09303a2	-4.5941935
44	0xc0a3f339	-5.1234403
45	0xc03b40b1	-2.9258235
46	0xc03a1568	-2.9075565
47	0xc0c2e4e6	-6.0904417
48	0xbf268e7f	-0.6506118
49	0x4045fc75	3.0935338
50	0xc021b5f8	-2.5267315
51	0xc00db544	-2.2141886
52	0xc0e5421e	-7.164321
53	0xc036b200	-2.8546143
54	0xbf8a7df8	-1.0819693
55	0x3e98391e	0.29731077
56	0xc0579592	-3.368504
57	0xc029dbe0	-2.654045
58	0xc0342ce3	-2.8152397
59	0xbf527d88	-0.82222795
60	0xc058b170	-3.38583
61	0xc004bb50	-2.0739326
62	0xbf3a6bc5	-0.72820693
63	0x3f1992b6	0.5998949
64	0xc03fb802	-2.995606
65	0xc02b3d04	-2.675599
66	0xc09fb60c	-4.9909725
67	0x404ee520	3.2327347
68	0xc084ecf8	-4.153927
69	0xc097d73a	-4.745023
70	0xc1265543	-10.395816
71	0xc02b60b7	-2.677778
72	0xc089012c	-4.281393
73	0xbffac03e	-1.9589918
74	0xbfd126fb	-1.6340021
75	0xc0126126	-2.2871795
76	0xc1043992	-8.264055
77	0xc0401789	-3.0014365
78	0xc0113781	-2.2690127
79	0x3fb5dacc	1.4207397
80	0xbf91984a	-1.13746
81	0xc006e220	-2.1075516
82	0x40bcb0ac	5.8965664
83	0xc081c10e	-4.0548162
84	0xc080f120	-4.029434
85	0xc00cd233	-2.2003295
86	0xbfbca006	-1.4736335
87	0xbf2a4fcd	-0.66528016
88	0xc05d1de8	-3.4549503
89	0xc044a3a0	-3.0724869
90	0x40bd97c9	5.9247785
91	0xc050a7ce	-3.260242
92	0xc08985bd	-4.2975755
93	0xc0150f3b	-2.3290546
94	0x4127d468	10.489357
95	0xc08da6bd	-4.426604
96	0xc004bd4d	-2.074054
97	0xc0d228e7	-6.567493
98	0xc128403a	-10.51568
99	0xc1025c9f	-8.147613
100	0xc0a73706	-5.2254667
101	0xbf961727	-1.1725816
102	0xc00be908	-2.186098
103	0xc0242ee2	-2.5653615
104	0xbfe63f2f	-1.7988032
105	0xc0566f76	-3.350553
106	0x3df06b72	0.117392436
107	0xc08166ca	-4.0437975
108	0xc010c923	-2.2622764
109	0xc10e88a4	-8.90836
110	0xc09b74ef	-4.858024
111	0x4079292e	3.8931384
112	0x4060585e	3.5053935
113	0xbf9ee403	-1.2413334
114	0xc083990c	-4.1124325
115	0xc03d906b	-2.9619396
116	0xc0100135	-2.2500737
117	0x410527f2	8.322252
118	0xc0abed8b	-5.372747
119	0xc0fa60a4	-7.824297
120	0xc0197662	-2.3978505
121	0xc07c846f	-3.945583
122	0x408f5eab	4.480306
123	0xc0249d80	-2.572113
124	0xc0ae16b4	-5.4402714
125	0xc024b857	-2.5737512
126	0x40ccd57c	6.40106
127	0xc080307f	-4.00592

2.weight f4 [128, 128]
0	0xbcff25d1	-0.031145962
1	0x3fccfea4	1.601521
2	0xc05918b2	-3.3921323
3	0x3ef345e3	0.47514257
4	0x3bd0a619	0.0063674566
5	0xbf021c43	-0.50824374
6	0x3f010a1a	0.5040604
7	0xbf670f10	-0.9025736
8	0x405be9fd	3.4361565
9	0x3fd408c2	1.6565173
10	0x4062d49d	3.544227
11	0xbe378001	-0.17919923
12	0x3f57ee01	0.8434754
13	0x3f1283a0	0.57232094
14	0x405360c4	3.302781
15	0x4027a300	2.6193237
16	0x3cbe4476	0.023226004
17	0x3ea868e1	0.32892516
18	0x3fae4732	1.3615477
19	0x3fc11a7a	1.5086205
20	0xc05ad1d2	-3.4190564
21	0xc0a5c3be	-5.1801443
22	0xbf33629f	-0.7007236
23	0x3f58c7af	0.84679693
24	0x3edc6ad9	0.43050268
25	0x40972961	4.723801
26	0x3fbad946	1.4597557
27	0x3e3317a9	0.17489494
28	0x3ff11548	1.883462
29	0x40219fbd	2.5253747
30	0xc0b0c9e0	-5.524643
31	0xbfa5b474	-1.2945695
32	0x40878a1b	4.2356086
33	0xbf22d339	-0.6360355
34	0xc0113e03	-2.26941
35	0xc0f49788	-7.6434975
36	0xbf97e7ac	-1.1867576
37	0xbf0282aa	-0.5098063
38	0x3f0d3f0c	0.55174327
39	0x404e3186	3.2217727
40	0x405e4d53	3.4734695
41	0x405dba7c	3.464507
42	0x3ecc51d1	0.3990617
43	0x3f11181e	0.56677425
44	0x401ca196	2.4473624
45	0x3fc18617	1.5119046
46	0xbfce8a5b	-1.6135973
47	0x40540228	3.3126316
48	0xbf917f3f	-1.1366957
49	0xc03f4311	-2.9884684
50	0x4051c00d	3.2773468
51	0xbf2c03f3	-0.67193526
52	0x3f6346ff	0.88780206
53	0x40339524	2.8059778
54	0x407d3619	3.9564269
55	0x408bd368	4.3695564
56	0x406d4e6c	3.7079115
57	0x4093f684	4.6238422
58	0xbfa4369e	-1.2829168
59	0xbe9f4463	-0.31106862
60	0x3e37eab1	0.17960621
61	0x408db5ce	4.428443
62	0xc10758f4	-8.459217
63	0xc0f55f19	-7.6678586
64	0x3f9dbd3c	1.2323375
65	0x3ff9da4e	1.9519746
66	0xc095c6b3	-4.6805053
67	0x40125dfd	2.2869866
68	0xbfdd7b8c	-1.7303329
69	0x3ea9d701	0.33171847
70	0x4006c7b7	2.1059396
71	0x3f531d93	0.82467
72	0xc0f1e63e	-7.5593557
73	0x403924a8	2.8928623
74	0x4021a7d6	2.525869
75	0x3f962bdb	1.1732134
76	0x3ee06bde	0.43832296
77	0x3f3251ad	0.6965588
78	0x40187d7d	2.3826592
79	0x3fe6b267	1.8023194
80	0xc0444b03	-3.0670784
81	0xbf5f55ec	-0.8724048
82	0x3fb09be4	1.3797574
83	0xc041134c	-3.0168028
84	0xbe06b6ca	-0.13155666
85	0xbe4597e8	-0.19296229
86	0x40bbf6cf	5.873878
87	0x3fb310f4	1.3989549
88	0x40dd3e0f	6.9138255
89	0xc07bf2f1	-3.936703
90	0xc0f05ed4	-7.5115757
91	0x40c51ca2	6.159745
92	0x3fcafca0	1.5858345
93	0xbffa4a26	-1.9553878
94	0xbf00121d	-0.5002764
95	0x40c08a01	6.016846
96	0x3f4ca480	0.7993851
97	0xbf973bdc	-1.1815143
98	0x3ff4ee4c	1.9135222
99	0x3f03a721	0.51426893
100	0x3f82c045	1.0214926
101	0x3e81e837	0.25372478
102	0xbfc4b155	-1.5366617
103	0x40b04903	5.5089126
104	0x3fe11457	1.7584332
105	0x3fc86bb4	1.5657868
106	0x4089a9ac	4.301962
107	0x4003ec49	2.0612967
108	0x40a5c892	5.1807337
109	0x3e123fa1	0.14282085
110	0x401b9543	2.4309852
111	0x406a95a2	3.6653829
112	0x3fe498be	1.7859113
113	0x402e4911	2.7232096
114	0xc08ee696	-4.4656477
115	0xbfdcf561	-1.7262384
116	0x3e875317	0.2643058
117	0x408b23b8	4.34811
118	0xbf3cd56f	-0.73763174
119	0xbfd0b6f6	-1.6305835
120	0xbf0dfd78	-0.5546489
121	0x4034a91f	2.8228223
122	0xbf3e15e3	-0.74252146
123	0x3f9d51ea	1.2290623
124	0xbfb04516	-1.3771083
125	0xbf8d49c1	-1.1038133
126	0x405f9650	3.4935493
127	0xc015eafd	-2.3424675
128	0x3e14639d	0.14491124
129	0xbe062c6b	-0.13102882
130	0xba1e047d	-0.00060278905
131	0xbcd64d91	-0.026160033
132	0xbdf7c046	-0.1209722
133	0xbdbb2b46	-0.09139113
134	0xbdc15001	-0.09439088
135	0xbe1cf808	-0.15328991
136	0xbd0d7075	-0.034531076
137	0xbdc99784	-0.098433524
138	0x3ce12a37	0.02748595
139	0xbbf8c7f4	-0.0075921956
140	0xbdf8aafb	-0.12141987
141	0x3b6dab1f	0.0036265326
142	0xbe02f86d	-0.1279008
143	0xbdf3113f	-0.11868524
144	0xbd6bd90a	-0.05758003
145	0xbde47819	-0.11155719
146	0xbdb8faa3	-0.0903218
147	0xbd9abbe7	-0.07555371
148	0xbcd11aba	-0.02552544
149	0xbd852a59	-0.06502218
150	0xbcb134b6	-0.02163158
151	0x3ad4f483	0.0016247187
152	0xbd916856	-0.070999786
153	0xbccec827	-0.025241924
154	0xbd207e49	-0.039182935
155	0xbd5d0d88	-0.053967983
156	0xbe1011f5	-0.1406935
157	0xbd9ca85e	-0.07649301
158	0xbcd66ea9	-0.026175814
159	0xbb46642b	-0.0030272107
160	0xbdd90539	-0.10596699
161	0xbe214397	-0.1574844
162	0xbdb21cac	-0.08696875
163	0xbde7fa69	-0.11327059
164	0xbe042993	-0.12906484
165	0xbc8f3f2a	-0.017486174
166	0xbd2f3df8	-0.042783707
167	0xbdb39b29	-0.08769829
168	0xbda9c9a5	-0.08290414
169	0xbcebc191	-0.028778823
170	0xbdcb6a60	-0.09932399
171	0xbe2fb064	-0.17157131
172	0xbd302299	-0.043001745
173	0x3b7777d9	0.0037760644
174	0xbdf3d9a3	-0.11906745
175	0xbe013252	-0.12616852
176	0xbc6659cd	-0.014059496
177	0xbd882c8c	-0.06649122
178	0xbe179ccb	-0.14805906
179	0xbe2e1085	-0.16998489
180	0xbdea7734	-0.114485174
181	0xbdca9b9b	-0.09892961
182	0xbd51a51d	-0.051182855
183	0xbd117571	-0.03551239
184	0xbe133513	-0.14375715
185	0xbc3a5e53	-0.011375028
186	0xbd006704	-0.031348243
187	0xbd367518	-0.044545263
188	0xbe020d2c	-0.12700337
189	0xbdb5d56f	-0.088786
190	0xbe108c27	-0.14115964
191	0xbe1bcbd5	-0.15214474
192	0xbdf91ed0	-0.1216408
193	0xbcc60968	-0.024174407
194	0xbe0516f7	-0.12997042
195	0xbb930f72	-0.004487925
196	0xbe1239f3	-0.14279918
197	0xbd9af6ad	-0.07566581
198	0xbdee6494	-0.116402775
199	0xbca97641	-0.02068627
200	0xbc92872c	-0.01788672
201	0xbddac8d5	-0.10682837
202	0xbdd7b057	-0.10531681
203	0xbdcf082b	-0.1010898
204	0xbdf4f0e4	-0.11960009
205	0xbb6e84bd	-0.0036395036
206	0xbdd019bb	-0.10161158
207	0x3c022ec3	0.007945719
208	0xbde88760	-0.11353946
209	0xbcf93ad6	-0.030423563
210	0xbd4338bd	-0.04766153
211	0xbe14025c	-0.14454025
212	0xbdc1924d	-0.09451733
213	0xbba73e9b	-0.0051038987
214	0x3cf84d50	0.030310303
215	0xbdb94fea	-0.090484455
216	0xbd923d40	-0.07140589
217	0xbe0788e4	-0.13235813
218	0xbd4e947d	-0.05043458
219	0xbd652739	-0.05594561
220	0xbd97bc29	-0.074089356
221	0xbcc13af0	-0.023587674
222	0xbd22cc74	-0.039745763
223	0xbd0ea1f2	-0.03482241
224	0xbcd74e9c	-0.026282601
225	0x3ac661b4	0.0015135319
226	0xbda28d93	-0.079371594
227	0xbd109277	-0.03529593
228	0xbcdaa303	-0.026689058
229	0xbd43715c	-0.04771553
230	0xbdedfcc6	-0.11620478
231	0xbdbd5505	-0.09244732
232	0xbe2b2c70	-0.1671617
233	0xbdd5c130	-0.10437238
234	0xbc58f36d	-0.013241631
235	0xbba7f2b4	-0.005125368
236	0xbda2b9ad	-0.07945571
237	0xbd736083	-0.059418213
238	0xbe0fd118	-0.14044607
239	0xbda2c3b0	-0.07947481
240	0xbd8934b4	-0.066995054
241	0xbd8b221d	-0.06793616
242	0xbd8f1e6e	-0.06988226
243	0xbd47be74	-0.048765615
244	0xbc49cee1	-0.01231739
245	0xbc9a8ca6	-0.018865895
246	0xbcfb18c8	-0.030651465
247	0xbdb3cfb6	-0.08779852
248	0x3b9c1ec5	0.00476441
249	0xbd509f79	-0.050933335
250	0xbd642898	-0.055702776
251	0xbce8eaab	-0.02843221
252	0xbd9400ea	-0.07226737
253	0xbd0b332c	-0.03398435
254	0xbd3d4ee5	-0.046217818
255	0xbdd76148	-0.10516602

2.bias f4 [128]
0	0x40b55507	5.6666293
1	0xbc98d7ab	-0.018657526
2	0x40935c8a	4.6050463
3	0x3f278c92	0.6544887
4	0x404d2767	3.20553
5	0x3e000474	0.12501699
6	0xc02c4434	-2.6916628
7	0xbee349b6	-0.44392174
8	0xbd84aa22	-0.06477763
9	0x3c19bdc3	0.009383622
10	0xbde04167	-0.109499745
11	0xbf3e3f0d	-0.7431496
12	0xbecddf7d	-0.4020957
13	0x3f76f20b	0.9646308
14	0x40295b7c	2.6462088
15	0xc02c9751	-2.6967356
16	0xbec41a38	-0.38301253
17	0xbeb22327	-0.34792444
18	0xc022c488	-2.5432453
19	0xbe0f4b6b	-0.13993613
20	0xc08d72d6	-4.420268
21	0x41064aa0	8.393219
22	0xbe1c3935	-0.15256198
23	0x3e039ff4	0.12853986
24	0xbee785e2	-0.45219332
25	0xc0354096	-2.832067
26	0xbebab8ab	-0.36469015
27	0xc06b7893	-3.6792343
28	0xbe9a94d0	-0.3019166
29	0xc0773b0a	-3.8629785
30	0xbe13d903	-0.14438252
31	0xbe2d885c	-0.16946548
32	0xbd77bb9f	-0.060481664
33	0x4085dd6e	4.18328
34	0xc10e18a0	-8.881012
35	0x3e88ad6b	0.26694807
36	0x3f8916b9	1.071006
37	0xbf9895f7	-1.1920766
38	0x3fe68592	1.8009512
39	0x3cbb2dfc	0.022849075
40	0xbcbac5cc	-0.022799395
41	0x40168130	2.351635
42	0xbed9bd0d	-0.42527047
43	0x40954cb6	4.665614
44	0xbedf7898	-0.43646693
45	0xbf9f122f	-1.2427424
46	0x409c84db	4.8912177
47	0xbec7a704	-0.3899461
48	0x3f240433	0.6406891
49	0xbd51261c	-0.051061735
50	0xbfc35190	-1.5259266
51	0xbd6671a9	-0.05626074
52	0xbf3c7d79	-0.73628956
53	0x415e72e9	13.903054
54	0xbda8756b	-0.08225521
55	0xc10a68fe	-8.650633
56	0xbf511d1f	-0.8168506
57	0xc004d69f	-2.0755994
58	0xc067000f	-3.6093786
59	0x3f5de187	0.8667225
60	0xbd8a675d	-0.06757996
61	0x3b03df78	0.0020122211
62	0x3fd74644	1.6818318
63	0x3f1a5991	0.6029292
64	0xbe040147	-0.12891112
65	0x3eeab215	0.4583899
66	0xc00b94ef	-2.1809652
67	0xbec8a268	-0.39186406
68	0xc088f9ac	-4.2804775
69	0xbdfc1394	-0.12308422
70	0x40a89b5b	5.2689643
71	0xbd850b40	-0.064962864
72	0x4005da3a	2.0914445
73	0xbd118533	-0.03552742
74	0x3f29a363	0.66264933
75	0xc010abff	-2.2604978
76	0xbed42a5c	-0.41438568
77	0x397a0b8f	0.00023846164
78	0x4033c005	2.808595
79	0x3f050947	0.5196728
80	0x3f017727	0.5057244
81	0xbf4272fc	-0.759567
82	0x3fa6f7b0	1.3044338
83	0xbeeeb025	-0.46618763
84	0xc060671b	-3.506293
85	0x409554a4	4.666582
86	0xbe9ab473	-0.30215797
87	0xc0f544ac	-7.664633
88	0xbe0b99dd	-0.13632913
89	0x3ea36353	0.31911716
90	0xbec12b84	-0.37728512
91	0x3c6ce2c9	0.014458367
92	0xc0e15bb2	-7.0424433
93	0xbe88ed3e	-0.267435
94	0xbd9113d2	-0.070838585
95	0xbdb68350	-0.089117646
96	0xbe84e474	-0.25955546
97	0xbeb6d860	-0.35711956
98	0x3fb51ed2	1.4150031
99	0xbd240d55	-0.040051777
100	0xbd57c1ba	-0.052674986
101	0xc0e78d60	-7.2360077
102	0x40884f81	4.259705
103	0x3f641013	0.8908703
104	0xbf9d6277	-1.2295674
105	0xbeac51a6	-0.33656043
106	0xbbe3790c	-0.00694192
107	0x40630ec0	3.5477753
108	0x409c3735	4.881739
109	0x4096630a	4.6995897
110	0xbd5ce262	-0.053926833
111	0xbefd359c	-0.49454963
112	0xbcfbf0c1	-0.030754449
113	0x39503acc	0.0001985833
114	0xc19b8422	-19.439518
115	0xbfe6acaf	-1.8021449
116	0xbe95f8b1	-0.292913
117	0xbf80e9f4	-1.0071397
118	0x4097f0cb	4.7481437
119	0x40f694c4	7.70566
120	0xbdef640e	-0.11689006
121	0x3d92f433	0.071754836
122	0xc016900b	-2.3525417
123	0xbcd46eb2	-0.02593169
124	0xbe1097e5	-0.14120443
125	0x3fd871f2	1.6909773
126	0x3ec6b197	0.38807365
127	0xbc49db0c	-0.012320291

4.weight f4 [4, 128]
0	0xc0529500	-3.2903442
1	0x3d354eec	0.04426472
2	0x4068d3dd	3.637931
3	0x3ffb460a	1.9630749
4	0x4091c218	4.554943
5	0x401202a4	2.2814112
6	0x3fe31231	1.7739927
7	0x3c9660fc	0.018356793
8	0x40521d87	3.2830522
9	0xbb7577d6	-0.003745546
10	0x3d30e584	0.043187633
11	0x402be6c2	2.6859593
12	0x3e077edb	0.13231985
13	0x4001765b	2.0228488
14	0x40a20150	5.06266
15	0x3f97dd21	1.1864358
16	0x3de27e3c	0.110592335
17	0x3f975a85	1.1824499
18	0x4013f364	2.3117304
19	0x3c54dfbd	0.0129927965
20	0xc0e29e4c	-7.0818233
21	0xc08bf353	-4.3734527
22	0x3cf24ca4	0.02957756
23	0x3fd976ca	1.6989377
24	0xbc1e1178	-0.00964772
25	0x3fa2fd9f	1.2733649
26	0x3eaaf2c5	0.33388343
27	0x3fc98296	1.5742977
28	0x3d97d1b0	0.074130416
29	0x3f9c4b68	1.2210512
30	0x3c58b9b8	0.013227873
31	0x3faf0453	1.3673195
32	0x3bde5af7	0.006785746
33	0xc0720e1f	-3.782112
34	0x40819280	4.0491333
35	0x3fb22343	1.3917011
36	0x3fba0be6	1.4534881
37	0x3f8cab51	1.0989782
38	0x3fd19a20	1.637516
39	0x3fc79dfd	1.5595089
40	0xbc82183a	-0.015880693
41	0x404c5c6d	3.1931412
42	0xbca00caf	-0.019537298
43	0x4042ae4e	3.0418887
44	0x401ce8b6	2.4517035
45	0x40125cb4	2.2869081
46	0x3fe6faf7	1.8045338
47	0xbc64d0bd	-0.013965783
48	0x3fd44546	1.658364
49	0x3cfa94b8	0.030588493
50	0x402f1469	2.7356207
51	0x401be298	2.4357052
52	0xbbad760c	-0.0052936133
53	0x40afc437	5.492702
54	0x3c7a9fce	0.0152968895
55	0x40913272	4.537408
56	0x402bddd0	2.6854134
57	0x40059cfb	2.0877063
58	0x40a573df	5.1703944
59	0x3fe22474	1.7667375
60	0x3d862840	0.06550646
61	0xbce4e86b	-0.027942857
62	0x3fd1838f	1.6368273
63	0x3fa7dc14	1.3114038
64	0x3fb86fef	1.440916
65	0x3fe0836f	1.754011
66	0x403ae116	2.9199882
67	0x3fb0e82d	1.3820854
68	0x40939bb8	4.6127586
69	0xba786e4d	-0.00094768853
70	0x4065c0d3	3.589894
71	0x3bf0eff0	0.0073528215
72	0x4055b626	3.3392425
73	0x3dcffe56	0.101559326
74	0x3fa66597	1.2999753
75	0x3fb9049f	1.4454535
76	0xbd003687	-0.031302
77	0x3b4d4935	0.0031324152
78	0x400b561a	2.1771302
79	0x3fa58281	1.2930452
80	0x3f94fb3a	1.1639168
81	0x4030240c	2.7522001
82	0x404a42e1	3.160332
83	0x401d871b	2.4613712
84	0x3fbe549b	1.486957
85	0x40425db9	3.0369704
86	0x3d8d2686	0.068921134
87	0x4074bb16	3.8239188
88	0xbb8a5b34	-0.004222298
89	0x3fe53f15	1.7909876
90	0xbc192502	-0.009347202
91	0x3d14e609	0.03635219
92	0x4064a414	3.5725145
93	0x3cf5e8f0	0.0300183
94	0x3be0da9e	0.0068619987
95	0x3ab67262	0.0013919587
96	0x3eced17b	0.40394196
97	0x3d2ca20b	0.042146724
98	0x3fd043b1	1.6270658
99	0xbc28432d	-0.010269922
100	0xbbb490e8	-0.0055104382
101	0x408159f1	4.042229
102	0x403c2736	2.9398932
103	0x3fdd11b3	1.7271026
104	0x40152052	2.3300977
105	0x3d0a3281	0.03373957
106	0x3d776957	0.060403194
107	0x40941eda	4.628766
108	0x40b816a7	5.752765
109	0x403e564f	2.9740179
110	0x3d4a076b	0.04932348
111	0x3fc58972	1.543257
112	0xbc52a3f4	-0.012856472
113	0x3ddf015e	0.10888933
114	0xc034374b	-2.8158748
115	0x403c1448	2.9387379
116	0x3c58b780	0.013227344
117	0x3f970ab9	1.1800147
118	0x4045002e	3.078136
119	0x3f21bbf2	0.63177407
120	0x3da0a6fb	0.07844349
121	0x4044f74e	3.0775943
122	0x3f95baa3	1.1697582
123	0x3cbb1f03	0.022841936
124	0x3ce32394	0.027726926
125	0x3ff6bbaa	1.927602
126	0x4007b66e	2.1205096
127	0x3f9632f0	1.1734295
128	0xc09604c3	-4.6880813
129	0x3d171ee1	0.036894683
130	0x404c2c8a	3.1902184
131	0x400f953f	2.2434843
132	0x405942fa	3.394713
133	0x403a4bb4	2.9108706
134	0x400fec9c	2.2488165
135	0x3bf8b381	0.007589758
136	0x3f3979ab	0.72451276
137	0x3d937b2b	0.07201227
138	0x3d61a5fa	0.05508993
139	0x40378e25	2.8680508
140	0xbe67c29c	-0.22632831
141	0x401765b0	2.3655815
142	0x402cb5bc	2.6985922
143	0x3fd13b74	1.6346269
144	0x3d63f58a	0.055654086
145	0x3fc8cf6f	1.5688304
146	0x40a1cdea	5.056386
147	0x3d46b6b5	0.048514087
148	0xc0f636bd	-7.694182
149	0x3f954e4d	1.166452
150	0x3c3303fc	0.010926243
151	0x400b3748	2.175249
152	0xbe92991e	-0.28632444
153	0x3fee6a34	1.8626161
154	0xbe60bb1e	-0.2194638
155	0x4007a21b	2.1192691
156	0x3db63ca6	0.088982865
157	0x3fea3e25	1.8300215
158	0x3d644fc0	0.055740118
159	0x3ff562d5	1.9170786
160	0x3dffe9f2	0.124957934
161	0xbff9153b	-1.9459604
162	0x408aadc6	4.3337126
163	0x3fddb1cf	1.7319888
164	0x3fe57697	1.7926816
165	0x3fcc5f0d	1.5966507
166	0x401469d1	2.3189585
167	0x400aa4a2	2.1662984
168	0x3d441541	0.04787183
169	0x408687b5	4.204066
170	0x3da02fa8	0.0782159
171	0x404df57d	3.2181084
172	0x403f7f91	2.992161
173	0x3ff0ac99	1.8802673
174	0x3f941213	1.1568016
175	0xbe92dd6f	-0.28684565
176	0x3fdc6c41	1.7220536
177	0xbc1bfe6f	-0.009521111
178	0x4000fd51	2.0154612
179	0x40329de7	2.7908876
180	0x3dd3eb68	0.103476346
181	0x40d429ff	6.6301265
182	0x3d76b990	0.06023556
183	0x408add5f	4.339523
184	0x3fb772c7	1.4331902
185	0x4011ffa1	2.2812274
186	0x405994ad	3.3996994
187	0x40091c69	2.142359
188	0x3d06722d	0.03282373
189	0x3d50432c	0.05084531
190	0x3fe64e00	1.7992554
191	0x3fce1939	1.6101447
192	0x3fde63b9	1.7374183
193	0x3ff5765e	1.9176748
194	0x4015daa2	2.3414693
195	0x3ffd9978	1.981246
196	0x40e4c7ad	7.1493745
197	0x3d67e9c0	0.056619406
198	0x3ff1727e	1.8863065
199	0x3d43a7d9	0.047767494
200	0x40885870	4.2607956
201	0x3cdeaf86	0.027183305
202	0x3fe42b12	1.7825644
203	0x400177e2	2.022942
204	0xbb36fd80	-0.0027922094
205	0x3e0e8372	0.1391733
206	0x3fe8e9bc	1.819633
207	0x3fd2e948	1.6477442
208	0x3f9d2767	1.227765
209	0x4053b7fc	3.3081045
210	0x40951f22	4.6600504
211	0x3faee2e5	1.3662993
212	0x400c0e55	2.1883748
213	0x4047f5b2	3.124371
214	0x3e8d8eda	0.2764805
215	0x4083319d	4.0998063
216	0x3dde0d3b	0.10842367
217	0x4003b69e	2.058021
218	0x3ddc1692	0.107464924
219	0x3b98e17a	0.004665551
220	0x409b0068	4.8437996
221	0x3e18edbe	0.14934441
222	0x3d17e0bc	0.037079558
223	0x3cbb0737	0.022830589
224	0x3e95f24a	0.29286414
225	0xbc983bcd	-0.018583203
226	0x40008697	2.0082147
227	0x3dec29fe	0.11531447
228	0xbc80769f	-0.015681563
229	0x4086265b	4.192182
230	0x4037912e	2.868236
231	0x4005cb62	2.0905385
232	0x3fd2a865	1.645764
233	0xbb9b912b	-0.00474753
234	0x3a0eb97f	0.0005444511
235	0x4050f3e6	3.2648864
236	0x3f3e78e9	0.74403244
237	0x40365dec	2.8494825
238	0xbc936cb5	-0.017996171
239	0x3fffa696	1.9972713
240	0x3dad522f	0.08462941
241	0xbb4e8c4a	-0.0031516724
242	0xc03aff52	-2.9218335
243	0x4005d222	2.0909505
244	0xbe94b05f	-0.2904081
245	0x3fcb4b25	1.5882307
246	0x4048d734	3.138135
247	0x3f9401ea	1.1563084
248	0x3e042839	0.12905969
249	0x4036e8e5	2.8579648
250	0x3fef52d3	1.8697151
251	0xbbe3095c	-0.006928606
252	0xbda64be8	-0.08119947
253	0x401c613c	2.4434347
254	0x403a1769	2.9076788
255	0x3fe4c7ca	1.7873471

4.bias f4 [4]
0	0x41a06965	20.051462
1	0xbed8bdb0	-0.4233222
2	0xbf84ad7c	-1.0365443
3	0xc147f53c	-12.497372
