best_model_standard_scaling.pth (torch, 74640 bytes, 6 tensors)

0.weight f4 [128, 6]
000000 fb a2 09 3f 5a a8 ac 3f 5f b7 f1 be 8b a8 02 c0
       0.53764313 1.3488877 -0.47210214 -2.041537
000010 7c 9b c5 be 36 3b 70 be ac 77 87 bf 61 18 3d c0
       -0.38595188 -0.23460087 -1.0583396 -2.954613
000020 3a 06 99 3e 3d 7e 25 bf 60 dd ae bf 6e bd 81 bd
       0.29887563 -0.6464575 -1.3661308 -0.06334959
000030 24 6b c8 3e 7b 9b 99 3f d4 8a e2 bf 80 bd 40 c0
       0.39144242 1.2000574 -1.7698617 -3.0115662
000040 67 72 b4 be 61 2b 35 bf 05 04 a4 bf 44 dc 64 3e
       -0.35243532 -0.70769316 -1.2813727 0.2234965
000050 81 1a 2d 3f 46 a6 92 3e 07 e0 ce be 7d 14 43 be
       0.67618567 0.28642482 -0.40405294 -0.19050784
000060 dc 94 a6 40 41 12 1d 41 81 62 67 c1 95 40 1f 41
       5.2056713 9.8169565 -14.461549 9.953267
000070 a0 b0 01 41 9a 6c 21 3f 5d c2 0f 40 99 38 cf 40
       8.105621 0.6305634 2.246238 6.475659
000080 58 ca 23 c0 ae ce 82 40 46 c8 72 40 57 be 90 3d
       -2.559225 4.0877295 3.7934737 0.070675544
000090 34 e9 d3 40 86 08 ba 40 ad 05 0d c1 13 a5 ed 40
       6.622217 5.8135405 -8.813886 7.4264007
0000a0 fd a8 af 40 55 fc 40 3e 85 67 50 40 bb 34 d2 40
       5.4893785 0.18846257 3.2563183 6.568937
0000b0 15 0c 47 c1 42 a4 c2 40 4a e9 b0 40 97 94 cd 3c
       -12.44045 6.082551 5.5284777 0.025095267
0000c0 98 65 b4 c0 3e 53 29 be 00 15 32 40 34 e1 b2 be
       -5.6374016 -0.1653566 2.7825317 -0.3493744
0000d0 7e 00 5f bf 0a ad 0a bd c5 8c 53 bf 6b 0f 90 3f
       -0.87110126 -0.03385643 -0.8263667 1.1254705
0000e0 f0 9d 52 be c0 ca 95 bf 0c d8 53 bf 43 13 19 bf
       -0.20568061 -1.1702499 -0.82751536 -0.59795016
0000f0 34 38 bd be a1 fb 99 3f 59 88 7a bf 27 1f 39 3d
       -0.36956942 1.2029916 -0.978643 0.045195725
000100 f7 35 5e 3e c6 d9 24 bb c6 d5 b8 bf 88 37 1e c0
       0.21700273 -0.0025154217 -1.4440238 -2.4721394
000110 8a 8e 7c 40 d3 35 51 3f 66 98 53 3e b2 95 87 3c
       3.9462 0.81722754 0.20663604 0.016550872
000120 01 af bc bd 63 76 fd be 3d 6e ef 3c 26 8f be 3b
       -0.09213067 -0.49504384 0.02922737 0.0058154045
000130 6a bd d0 3e 2c 5b 1e bc 5c 91 e0 c0 77 5f 12 41
       0.4076951 -0.009665292 -7.017744 9.148307
000140 6c 31 15 c1 bf 3f 9a 40 9b 9e 01 41 b5 89 81 3e
       -9.324566 4.8202815 8.101222 0.25300375
000150 0b e4 87 bf 8c e0 26 bf 6d 27 b8 bf 77 f8 7e 3f
       -1.0616468 -0.6518638 -1.4387032 0.9959788
000160 51 c9 42 bf f0 f2 b6 be 39 6f 91 bf ac 4b f4 3d
       -0.76088434 -0.35732222 -1.1362067 0.11928496
000170 42 0e 3f bf 3f 87 c0 be 5e b8 52 be d0 97 47 be
       -0.7463113 -0.37603185 -0.20578143 -0.19491506
000180 97 62 9f bf 49 18 0b 3f b2 d9 21 3f 95 36 d1 3e
       -1.2451962 0.5433393 0.632228 0.40861955
000190 fe ee 46 bf af 32 0f be f4 ce 8e 3e 8b ae 93 c0
       -0.77708423 -0.13984178 0.27892268 -4.6150565
0001a0 71 d3 5b 3e 16 d3 0f bf ed b5 cd c0 c5 17 2a bf
       0.21467377 -0.56181467 -6.4284577 -0.6644252
0001b0 5f b7 75 be c8 bc 18 be b8 4d 2a bc 7b f3 e4 bd
       -0.23995732 -0.14915764 -0.010394506 -0.11179253
0001c0 16 cb 15 3e 97 a0 ab bd 03 84 75 be 5d f2 31 3f
       0.14628252 -0.083802395 -0.2397614 0.6951044
0001d0 68 28 d6 bf 3d 37 04 c0 a4 cf 55 be 96 54 dc bc
       -1.6731081 -2.0658715 -0.2087999 -0.026895802
0001e0 fd 3a 98 3e 4b 47 d5 3f 6b 00 8c c0 76 74 07 41
       0.29732504 1.6662382 -4.375051 8.465933
0001f0 97 e8 4d 40 31 df fa bb d1 1f 4f 40 b5 54 ae c0
       3.2173212 -0.007656001 3.236317 -5.44784
000200 13 29 20 bf be 75 81 40 0e cc e3 c0 30 df 87 be
       -0.62562674 4.045623 -7.118659 -0.26537466
000210 84 0c d8 be 6f 8f 5f bd 7b 69 6e 3e 81 4c 97 3e
       -0.4219705 -0.05458015 0.23282425 0.29550555
000220 a1 3c e3 3b 23 ae a2 bc c0 8a d2 bf 00 c6 80 bf
       0.0069347178 -0.019858425 -1.6448593 -1.0060425
000230 6d 0b 1c 3f 3a 54 5f 3f ea 19 4a bf 62 64 8c bd
       0.60954934 0.87237895 -0.7894579 -0.06855084
000240 06 70 ec bf b5 5c fd 3f 81 27 09 c0 44 26 b0 c0
       -1.8471687 1.9793917 -2.1430361 -5.504671
000250 0c 4a 21 bf 31 b6 44 be 2d 82 08 c0 43 f2 2b bf
       -0.6300361 -0.19210126 -2.1329453 -0.6716654
000260 2d e0 89 3f 7a 8b 59 40 e7 fd 4c 3f cd 1e 76 bd
       1.0771538 3.399138 0.80074924 -0.060087968
000270 51 b0 20 c0 c9 4f be 40 ca fe 0d c0 e8 d6 05 c1
       -2.5107615 5.9472394 -2.218676 -8.364967
000280 8f db d2 40 fb 5a ac 3e 47 30 ba bf 0b 1d 33 bf
       6.5893016 0.33663163 -1.4545983 -0.6996619
000290 09 16 18 3f 48 7e 63 3f 29 27 34 3e be e3 97 be
       0.5940862 0.88864565 0.17593063 -0.2966594
0002a0 71 d3 5a 3f 28 f9 45 c0 48 88 ba bf 4c af 61 40
       0.85478884 -3.0933323 -1.457284 3.5263243
0002b0 e5 a1 b9 c0 17 df 11 bf d0 ea 42 bf 1a c5 75 bf
       -5.8010125 -0.56981033 -0.76139545 -0.9600388
0002c0 6a 08 ad 3e 2e c6 75 3e 33 58 0d 3f a2 85 e4 ba
       0.33795482 0.24001381 0.55212706 -0.0017434845
0002d0 d2 73 66 40 83 21 46 c1 68 4f 9b 40 99 30 0a 40
       3.600819 -12.383182 4.853443 2.1592162
0002e0 29 4c 67 c1 04 f9 8d bf 3d 11 8b bf 19 d8 35 3d
       -14.456094 -1.1091619 -1.0864636 0.04439554
0002f0 2f ca 7e 3d 4f 0d 94 3f 62 53 22 bf d9 59 ee bd
       0.062204536 1.1566561 -0.6340848 -0.11638231
000300 61 29 83 bf dc d5 0c bf 4f 41 b9 3e 08 4a 95 3e
       -1.0247003 -0.55013824 0.3618264 0.29158044
000310 67 62 05 be c3 5c 5b be 14 18 56 c1 ab 62 6c c0
       -0.13025819 -0.21422105 -13.380878 -3.6935222
000320 89 52 7d 3f 9e 07 e2 40 ee 58 d7 bf be d7 bf 3d
       0.98954064 7.06343 -1.6824014 0.093673214
000330 8a 8b 6f c0 81 e8 b4 c0 bd a0 23 41 13 69 f3 40
       -3.7428918 -5.653382 10.226743 7.6065764
000340 ca a0 a4 c0 27 82 9e 3d 39 6f 1a 41 8a 27 c8 c0
       -5.1446276 0.07739668 9.652154 -6.2548265
000350 13 58 02 c1 94 77 0c 41 c5 88 f8 c0 46 f1 93 be
       -8.1465025 8.779194 -7.7666955 -0.28895015
000360 0a d8 5f bf 64 60 96 3e 85 fc e6 bb d7 26 75 3f
       -0.87439024 0.29370415 -0.0070491456 0.9576239
000370 11 1d 54 bf 60 97 8b be d7 01 35 bf 85 d3 32 3f
       -0.8285685 -0.27263927 -0.7070593 0.69854003
000380 5e 8d ba 3e 0f 75 dd 3e 80 f9 3f bf 74 fd 4f bd
       0.3643598 0.4325337 -0.7499008 -0.05077882
000390 e2 c7 d5 be 67 5c 0e bf 09 a2 1a 3e fe dd 38 3e
       -0.4175406 -0.55609745 0.15100874 0.18053433
0003a0 b6 0b 5b 3e ea 62 96 bc 7b e6 ac c0 ac b8 1b 41
       0.21391186 -0.018357713 -5.403135 9.732586
0003b0 0a ef a0 c0 db 79 59 40 c3 42 05 41 69 f6 b9 3d
       -5.0291796 3.3980625 8.328799 0.09080202
0003c0 0e ae 17 bf 9a 34 ab 3e c8 a8 00 3e 6a 0b 82 be
       -0.5924996 0.3343857 0.12564385 -0.25399333
0003d0 48 fd ab be 86 1d 4d be 55 4a 1e c0 a0 56 02 bf
       -0.33591676 -0.20030794 -2.4732869 -0.5091343
0003e0 ac 2b bd 3f 67 04 d4 3e 1c 8f 22 3f 64 7f 4d bc
       1.4778953 0.4140961 0.6349962 -0.012542579
0003f0 e0 cb 84 40 4c 6b 47 40 14 e0 d7 c1 5e 30 74 41
       4.149887 3.115924 -26.984413 15.261808

0.bias f4 [128]
000000 30 63 64 c0 0a c4 a8 c0 e6 31 7a c0 c1 0f 2b c0
       -3.568554 -5.2739305 -3.9092956 -2.6728365
000010 b2 ff bf c1 aa 6c db 40 ed 35 5d 40 10 4e 1d c1
       -23.999851 6.8570147 3.4564164 -9.831558
000020 5c 89 37 c1 40 ad 5a c0 92 31 be c0 44 ca d3 c0
       -11.471035 -3.4168243 -5.943551 -6.6184406
000030 bc 6e 80 be 1e 8a a4 40 ed 3c 8c c0 fd dd 5c c0
       -0.25084484 5.14186 -4.382437 -3.451049
000040 6b 31 29 c0 ec 7b 0b 41 a0 a7 f4 bf 01 df 37 c0
       -2.6436412 8.717754 -1.9113655 -2.872986
000050 8a 49 6c 40 03 7c ec 3f 81 9b 9e bf ad 82 83 c0
       3.6919885 1.8475345 -1.2391206 -4.1097016
000060 fd cc 34 c1 95 d8 2b c1 91 0f 99 c0 26 cb 5f c0
       -11.300046 -10.740376 -4.78315 -3.4967742
000070 45 7f 37 40 a9 a1 da bf 3d 3c 7c 41 52 85 4f c0
       2.867143 -1.7080585 15.764707 -3.2425122
000080 e3 07 29 c0 6a f2 5e c1 d9 8b 6a 41 41 09 45 41
       -2.6411064 -13.934183 14.6591425 12.314759
000090 c7 57 49 c0 fb 79 f0 bf 5b b8 8b bf 5f 2e 12 41
       -3.1459825 -1.8787225 -1.0915636 9.136321
0000a0 16 ac c6 bf 44 bb c4 c0 5d 2d 63 c0 0c 09 d7 3f
       -1.5521266 -6.1478596 -3.5496438 1.6799636
0000b0 f9 f2 5c c1 b1 40 3b c0 68 15 3a c0 3f d7 f8 c0
       -13.8093195 -2.9258235 -2.9075565 -7.776275
0000c0 17 b1 42 c0 43 d2 08 41 f8 b5 21 c0 3f 21 a8 40
       -3.0420587 8.551333 -2.5267315 5.2540584
0000d0 20 aa 11 3f 00 b2 36 c0 bc 8a 34 c0 98 e1 3a 41
       0.56900215 -2.8546143 -2.8209677 11.680077
0000e0 92 95 57 c0 f1 2c 78 c0 e3 2c 34 c0 88 7d 52 bf
       -3.368504 -3.877743 -2.8152397 -0.82222795
0000f0 70 b1 58 c0 ad 73 4b c0 1a 2d aa c0 32 86 13 c0
       -3.38583 -3.1789353 -5.3180056 -2.3050656
000100 aa af df c0 e2 4e dc 40 b1 17 43 c1 0d ca 6e 3f
       -6.9901934 6.8846292 -12.193284 0.93277055
000110 cb 48 a3 c0 fe f3 fc c0 43 a3 2a c1 b5 12 4b c0
       -5.102636 -7.904784 -10.664859 -3.1730168
000120 c7 cf b1 40 3e c0 fa bf fb 26 d1 bf 26 61 12 c0
       5.5566134 -1.9589918 -1.6340021 -2.2871795
000130 b8 da 1f c1 89 17 40 c0 81 37 11 c0 28 31 1b 41
       -9.990898 -3.0014365 -2.2690127 9.699501
000140 4a 98 91 bf 0c 14 2d 40 a8 38 05 41 c5 30 84 c1
       -1.13746 2.7043486 8.326332 -16.523813
000150 7f f3 34 41 7c 69 98 c0 17 d8 11 41 23 b2 53 bf
       11.309447 -4.7628765 9.115256 -0.8269369
000160 ae 8a 89 c0 e7 fd e9 3f 34 e4 99 40 ce a7 50 c0
       -4.2981787 1.828061 4.809107 -3.260242
000170 bd 85 89 c0 99 a3 73 c0 29 5f 0f 41 80 19 7b be
       -4.2975755 -3.8068602 8.960732 -0.24521446
000180 0c 0e 23 c0 c1 44 44 c1 25 e6 5e c1 3a c0 13 c1
       -2.5477324 -12.266786 -13.931188 -9.23443
000190 d6 b2 f8 c0 27 17 96 bf 08 e9 0b c0 e2 2e 24 c0
       -7.7718306 -1.1725816 -2.186098 -2.5653615
0001a0 2f 3f e6 bf 76 6f 56 c0 4b e3 70 bf ca 66 81 c0
       -1.7988032 -3.350553 -0.9409682 -4.0437975
0001b0 10 2f 8b c0 37 ca 27 c1 1d eb e2 40 72 df 12 41
       -4.349495 -10.486869 7.0912004 9.179552
0001c0 76 a4 2a 41 03 e4 9e bf b0 94 d3 c0 6b 90 3d c0
       10.665152 -1.2413334 -6.6119003 -2.9619396
0001d0 f4 32 31 c0 c2 90 fa 40 b6 6c 02 c0 3b f1 06 c1
       -2.768735 7.8301706 -2.0378852 -8.433894
0001e0 62 76 19 c0 7a 34 11 c0 e6 51 41 41 80 9d 24 c0
       -2.3978505 -2.268828 12.082495 -2.572113
0001f0 3a 37 bc c0 9c 9d 85 bf 00 c0 81 40 2a 9d 00 c1
       -5.8817415 -1.0438724 4.0546875 -8.03837

2.weight f4 [128, 128]
000000 d1 25 ff bc 1c 67 8e 40 b2 18 59 c0 e3 45 f3 3e
       -0.031145962 4.4500866 -3.3921323 0.47514257
000010 1f e5 33 40 42 b8 f8 3f 44 68 ff c0 88 6c 68 be
       2.8108594 1.9431231 -7.9814777 -0.22697651
000020 f3 9c 8b be c2 08 d4 3f 5c 98 ab 40 9f fe ee bf
       -0.2726818 1.6565173 5.3623486 -1.8671454
000030 01 ee 57 3f 00 37 35 c0 c4 60 53 40 00 a3 27 40
       0.8434754 -2.831482 3.302781 2.6193237
000040 76 44 be 3c aa 69 a1 c0 f2 eb bd 3f 7a 1a c1 3f
       0.023226004 -5.0441484 1.483763 1.5086205
000050 fe 7e 52 3f 7b 7f 84 c0 9f 62 33 bf af c7 58 3f
       0.82225025 -4.1405616 -0.7007236 0.84679693
000060 ca 3c 16 bf c7 7a c8 40 ff 72 aa 40 a9 17 33 3e
       -0.58686507 6.2649875 5.3265376 0.17489494
000070 72 92 50 40 bd 9f 21 40 91 dc 15 40 74 b4 a5 bf
       3.2589383 2.5253747 2.3415873 -1.2945695
000080 1b 8a 87 40 6d 6a 1e bf 6d 7c 3f 40 d9 6f a7 c0
       4.2356086 -0.6188114 2.9919693 -5.2324033
000090 ac e7 97 bf aa 82 02 bf 0c 3f 0d 3f 3e ad 6e 40
       -1.1867576 -0.5098063 0.55174327 3.7293239
0000a0 53 4d 5e 40 45 d7 28 40 8f 96 b6 40 9d 61 ae bf
       3.4734695 2.638139 5.7058787 -1.3623539
0000b0 ea 2a 4c 3e 17 86 c1 3f 5b 8a ce bf b8 89 a3 3f
       0.19938245 1.5119046 -1.6135973 1.2776403
0000c0 dc 97 76 c0 cb 3d 99 c0 0d c0 51 40 9f 3a 76 3f
       -3.8530188 -4.788793 3.2773468 0.961832
0000d0 7b 09 03 c0 24 95 33 40 a9 a5 8a 3f 48 4c ae 40
       -2.0474536 2.8059778 1.0831805 5.4468117
0000e0 6c 4e 6d 40 a5 8f 88 40 9e 36 a4 bf 63 44 9f be
       3.7079115 4.2675347 -1.2829168 -0.31106862
0000f0 b1 ea 37 3e 8e 46 6a c0 45 2f 82 c0 9d 25 cd c0
       0.17960621 -3.6605563 -4.06827 -6.4108415
000100 3a 46 d4 40 f0 21 be 40 13 ef ab c0 e4 df a7 40
       6.6335726 5.9416428 -5.372934 5.2460804
000110 0e b5 90 c0 c8 b1 e8 be db 6b 3c 40 2b 12 a5 3f
       -4.5221014 -0.45448136 2.944083 1.289617
000120 0d b2 3d c1 a8 24 39 40 d6 a7 21 40 db 2b 96 3f
       -11.855969 2.8928623 2.525869 1.1732134
000130 94 bb 5b bd ad 51 32 3f 7d 7d 18 40 c8 16 97 40
       -0.053645685 0.6965588 2.3826592 4.721531
000140 03 4b 44 c0 b8 65 81 3f 3f 49 98 40 77 12 8a bf
       -3.0670784 1.0109167 4.758941 -1.0786885
000150 3d b3 6c 3f 88 24 d8 be 9f 46 f1 40 37 59 82 3f
       0.92460996 -0.4221537 7.5398707 1.0183476
000160 30 8e 09 41 50 88 ed bf d4 d4 9e c0 a2 1c c5 40
       8.597214 -1.8557224 -4.96348 6.159745
000170 a0 fc ca 3f eb 60 e2 be 64 01 e4 3f fa 04 36 41
       1.5858345 -0.44214568 1.7812924 11.376215
000180 a1 04 13 40 84 0f 3b c0 66 6e 92 3f af 6a 51 3f
       2.2971575 -2.922822 1.1439941 0.8180341
000190 7b 1d 06 40 37 e8 81 3e 55 b1 c4 bf 03 49 b0 40
       2.0955493 0.25372478 -1.5366617 5.5089126
0001a0 57 14 e1 3f b4 6b c8 3f c1 f8 b1 3f 49 ec 03 40
       1.7584332 1.5657868 1.3904039 2.0612967
0001b0 a7 d5 af 40 27 0d 43 c0 58 ef 38 40 6b 35 e3 40
       5.4948306 -3.0476778 2.8896084 7.1002707
0001c0 57 e5 87 40 11 49 2e 40 56 20 9c c0 61 f5 dc bf
       4.2467456 2.7232096 -4.8789473 -1.7262384
0001d0 d2 5e 85 40 95 3a 8b 40 5c fc ec bf 33 78 aa 3e
       4.1678247 4.350901 -1.8514514 0.3329483
0001e0 78 fd 0d bf 1d 8b 3d 3e ff 6c cf 3f ea 51 9d 3f
       -0.5546489 0.18510099 1.6205138 1.2290623
0001f0 f0 22 13 bf 93 d2 82 3e 7d f0 e9 3f 62 7e 4a c0
       -0.57475185 0.2555128 1.8276516 -3.1639638
000200 9d 63 14 3e 6b 2c 06 be 7d 04 1e ba 91 4d d6 bc
       0.14491124 -0.13102882 -0.00060278905 -0.026160033
000210 46 c0 f7 bd 46 2b bb bd 01 50 c1 bd 08 f8 1c be
       -0.1209722 -0.09139113 -0.09439088 -0.15328991
000220 75 70 0d bd 84 97 c9 bd 37 2a e1 3c f4 c7 f8 bb
       -0.034531076 -0.098433524 0.02748595 -0.0075921956
000230 fb aa f8 bd 1f ab 6d 3b 6d f8 02 be 3f 11 f3 bd
       -0.12141987 0.0036265326 -0.1279008 -0.11868524
000240 0a d9 6b bd 19 78 e4 bd a3 fa b8 bd e7 bb 9a bd
       -0.05758003 -0.11155719 -0.0903218 -0.07555371
000250 ba 1a d1 bc 59 2a 85 bd b6 34 b1 bc 83 f4 d4 3a
       -0.02552544 -0.06502218 -0.02163158 0.0016247187
000260 56 68 91 bd 27 c8 ce bc 49 7e 20 bd 88 0d 5d bd
       -0.070999786 -0.025241924 -0.039182935 -0.053967983
000270 f5 11 10 be 5e a8 9c bd a9 6e d6 bc 2b 64 46 bb
       -0.1406935 -0.07649301 -0.026175814 -0.0030272107
000280 39 05 d9 bd 97 43 21 be ac 1c b2 bd 69 fa e7 bd
       -0.10596699 -0.1574844 -0.08696875 -0.11327059
000290 93 29 04 be 2a 3f 8f bc f8 3d 2f bd 29 9b b3 bd
       -0.12906484 -0.017486174 -0.042783707 -0.08769829
0002a0 a5 c9 a9 bd 91 c1 eb bc 60 6a cb bd 64 b0 2f be
       -0.08290414 -0.028778823 -0.09932399 -0.17157131
0002b0 99 22 30 bd d9 77 77 3b a3 d9 f3 bd 52 32 01 be
       -0.043001745 0.0037760644 -0.11906745 -0.12616852
0002c0 cd 59 66 bc 8c 2c 88 bd cb 9c 17 be 85 10 2e be
       -0.014059496 -0.06649122 -0.14805906 -0.16998489
0002d0 34 77 ea bd 9b 9b ca bd 1d a5 51 bd 71 75 11 bd
       -0.114485174 -0.09892961 -0.051182855 -0.03551239
0002e0 13 35 13 be 53 5e 3a bc 04 67 00 bd 18 75 36 bd
       -0.14375715 -0.011375028 -0.031348243 -0.044545263
0002f0 2c 0d 02 be 6f d5 b5 bd 27 8c 10 be d5 cb 1b be
       -0.12700337 -0.088786 -0.14115964 -0.15214474
000300 d0 1e f9 bd 68 09 c6 bc f7 16 05 be 72 0f 93 bb
       -0.1216408 -0.024174407 -0.12997042 -0.004487925
000310 f3 39 12 be ad f6 9a bd 94 64 ee bd 41 76 a9 bc
       -0.14279918 -0.07566581 -0.116402775 -0.02068627
000320 2c 87 92 bc d5 c8 da bd 57 b0 d7 bd 2b 08 cf bd
       -0.01788672 -0.10682837 -0.10531681 -0.1010898
000330 e4 f0 f4 bd bd 84 6e bb bb 19 d0 bd c3 2e 02 3c
       -0.11960009 -0.0036395036 -0.10161158 0.007945719
000340 60 87 e8 bd d6 3a f9 bc bd 38 43 bd 5c 02 14 be
       -0.11353946 -0.030423563 -0.04766153 -0.14454025
000350 4d 92 c1 bd 9b 3e a7 bb 50 4d f8 3c ea 4f b9 bd
       -0.09451733 -0.0051038987 0.030310303 -0.090484455
000360 40 3d 92 bd e4 88 07 be 7d 94 4e bd 39 27 65 bd
       -0.07140589 -0.13235813 -0.05043458 -0.05594561
000370 29 bc 97 bd f0 3a c1 bc 74 cc 22 bd f2 a1 0e bd
       -0.074089356 -0.023587674 -0.039745763 -0.03482241
000380 9c 4e d7 bc b4 61 c6 3a 93 8d a2 bd 77 92 10 bd
       -0.026282601 0.0015135319 -0.079371594 -0.03529593
000390 03 a3 da bc 5c 71 43 bd c6 fc ed bd 05 55 bd bd
       -0.026689058 -0.04771553 -0.11620478 -0.09244732
0003a0 70 2c 2b be 30 c1 d5 bd 6d f3 58 bc b4 f2 a7 bb
       -0.1671617 -0.10437238 -0.013241631 -0.005125368
0003b0 ad b9 a2 bd 83 60 73 bd 18 d1 0f be b0 c3 a2 bd
       -0.07945571 -0.059418213 -0.14044607 -0.07947481
0003c0 b4 34 89 bd 1d 22 8b bd 6e 1e 8f bd 74 be 47 bd
       -0.066995054 -0.06793616 -0.06988226 -0.048765615
0003d0 e1 ce 49 bc a6 8c 9a bc c8 18 fb bc b6 cf b3 bd
       -0.01231739 -0.018865895 -0.030651465 -0.08779852
0003e0 c5 1e 9c 3b 79 9f 50 bd 98 28 64 bd ab ea e8 bc
       0.00476441 -0.050933335 -0.055702776 -0.02843221
0003f0 ea 00 94 bd 2c 33 0b bd e5 4e 3d bd 48 61 d7 bd
       -0.07226737 -0.03398435 -0.046217818 -0.10516602

2.bias f4 [128]
000000 61 b2 c7 bf ab d7 98 bc e9 39 44 41 c0 d5 36 40
       -1.5601312 -0.018657526 12.264138 2.8567963
000010 d7 82 07 41 a7 c7 4d 40 dc 68 2c 40 b6 49 e3 be
       8.469443 3.2153108 2.6939 -0.44392174
000020 5d f3 0b 41 c3 bd 19 3c 67 41 e0 bd 5a 0b 79 40
       8.746915 0.009383622 -0.109499745 3.8913178
000030 7d df cd be d2 83 ee 40 65 15 0f 40 eb 27 0a 40
       -0.4020957 7.4535913 2.2356808 2.1586864
000040 64 e2 2e bf 51 c2 03 bf 9b 11 d1 bf 6b 4b 0f be
       -0.68314195 -0.5146838 -1.6333498 -0.13993613
000050 fc 01 9f c1 be cb 40 41 e1 20 c3 3f e1 d8 06 40
       -19.875969 12.049742 1.5244409 2.1069872
000060 e2 85 e7 be aa d6 17 3f ab b8 ba be 55 f7 7d c0
       -0.45219332 0.59311926 -0.36469015 -3.968221
000070 d0 94 9a be 06 87 2a bf 03 d9 13 be 29 5d 1f 40
       -0.3019166 -0.6661228 -0.14438252 2.490061
000080 9f bb 77 bd 7c 9d ce 3f a0 18 0e c1 ff d6 94 40
       -0.060481664 1.614181 -8.881012 4.6512446
000090 47 26 80 40 f4 fc 33 40 35 27 ab 40 a6 c2 ec 3f
       4.0046725 2.812314 5.348536 1.8496902
0000a0 cc c5 ba bc a3 77 14 41 0d bd d9 be af 36 71 41
       -0.022799395 9.279208 -0.42527047 15.0758505
0000b0 35 8d 50 40 ce eb ca 40 b9 6b 88 40 04 a7 c7 be
       3.2586186 6.3412848 4.2631497 -0.3899461
0000c0 49 45 8a 40 1c 26 51 bd a0 ca 53 40 58 ea ec 3f
       4.3209577 -0.051061735 3.3092422 1.8509016
0000d0 79 7d 3c bf ed f8 cd 41 6b 75 a8 bd fe 68 0a c1
       -0.73628956 25.746546 -0.08225521 -8.650633
0000e0 f3 fb 91 bd 07 1c 0e 40 91 c9 1c c0 e3 41 8c 40
       -0.071281336 2.2204607 -2.4498026 4.383043
0000f0 5d 67 8a bd 78 df 03 3b c5 8b fa 40 fc 87 02 40
       -0.06757996 0.0020122211 7.8295617 2.0395498
000100 a8 35 bd 40 ad 14 d2 3e 07 65 e9 40 a4 03 bb 3f
       5.9128 0.410314 7.2935824 1.4610486
000110 ac f9 88 c0 94 13 fc bd 7d e9 6d 40 40 0b 85 bd
       -4.2804775 -0.12308422 3.717376 -0.064962864
000120 45 6e d4 3f 33 85 11 bd c0 af d6 be 19 35 a3 40
       1.6596152 -0.03552742 -0.41930962 5.1002316
000130 5c 2a d4 be 8f 0b 7a 39 31 cf 23 40 83 27 c9 40
       -0.41438568 0.00023846164 2.559521 6.286073
000140 0c 01 f0 40 38 73 31 40 eb 54 b2 3f 8c 1a 7b 40
       7.500128 2.7726574 1.3932165 3.9234953
000150 8f 0c 53 c0 d0 1c 6c 41 73 b4 9a be ac 44 f5 c0
       -3.2976415 14.757034 -0.30215797 -7.664633
000160 dd 99 0b be 6c ec 9b 40 84 2b c1 be c9 e2 6c 3c
       -0.13632913 4.87261 -0.37728512 0.014458367
000170 b2 5b e1 c0 3e ed 88 be d2 13 91 bd 50 83 b6 bd
       -7.0424433 -0.267435 -0.070838585 -0.089117646
000180 74 e4 84 be 60 d8 b6 be d3 24 2c 40 55 0d 24 bd
       -0.25955546 -0.35711956 2.6897476 -0.040051777
000190 ba c1 57 bd 60 8d e7 c0 f4 83 63 41 14 a3 8c 40
       -0.052674986 -7.2360077 14.219715 4.394907
0001a0 92 da 5c 40 a6 51 ac be 0c 79 e3 bb c9 f2 4a 40
       3.4508405 -0.33656043 -0.00694192 3.1710684
0001b0 ed 12 4d 41 68 83 66 41 62 e2 5c bd 65 b4 c5 3f
       12.817121 14.407082 -0.053926833 1.5445677
0001c0 c1 f0 fb bc cc 3a 50 39 93 b0 a7 c1 00 55 b6 bf
       -0.030754449 0.0001985833 -20.961218 -1.424469
0001d0 b1 f8 95 be 0f 9b b6 40 47 65 6e 41 4f 7b 29 41
       -0.292913 5.706428 14.899726 10.592605
0001e0 0e 64 ef bd e9 9a 94 40 33 f5 5c 40 b2 6e d4 bc
       -0.11689006 4.64391 3.4524658 -0.02593169
0001f0 e5 97 10 be 28 8f ba 40 a3 15 b3 40 f0 a1 41 41
       -0.14120443 5.829975 5.596391 12.1020355

4.weight f4 [4, 128]
000000 da bb d4 bf ec 4e 35 3d 7f 90 c3 be f4 4c 07 c0
       -1.6619828 0.04426472 -0.3819618 -2.1140718
000010 17 e8 e9 3f 74 c8 bb 40 30 59 cb 3f fc 60 96 3c
       1.8273953 5.8682194 1.5886593 0.018356793
000020 f3 b4 04 3f d6 77 75 bb 84 e5 30 3d 68 72 92 3f
       0.51838607 -0.003745546 0.043187633 1.1441164
000030 db 7e 07 3e 7f 5a cd bf e8 6f 90 40 99 a2 10 40
       0.13231985 -1.6043242 4.5136604 2.2599242
000040 4d ed 09 3f 72 58 bb 3f b4 17 2d 40 bd df 54 3c
       0.5387772 1.4636366 2.7045717 0.0129927965
000050 32 4c cc c0 fc 5c a9 40 f8 9a 5e be 1f 74 e3 3f
       -6.384301 5.2926006 -0.21738803 1.7769812
000060 78 11 1e bc bf e3 a5 40 c5 f2 aa 3e 61 e6 d2 be
       -0.00964772 5.184051 0.33388343 -0.4119139
000070 b0 d1 97 3d f8 20 73 3f b8 b9 58 3c 40 3b a5 3f
       0.074130416 0.9497218 0.013227873 1.2908707
000080 f7 5a de 3b c8 c0 7f c0 80 92 81 40 8b 91 1a 3f
       0.006785746 -3.9961414 4.0491333 0.6037833
000090 3c 2f 6d 3f ae ee f5 3f bc d8 00 c0 ef 71 a0 be
       0.926502 1.9213464 -2.0132284 -0.31336924
0000a0 3a 18 82 bc 3c eb de bd af 0c a0 bc 74 32 f7 3f
       -0.015880693 -0.10884711 -0.019537298 1.9312272
0000b0 c0 54 1f 40 66 4a 12 be 32 2e b4 3f bd d0 64 bc
       2.4895477 -0.14286193 1.4076598 -0.013965783
0000c0 85 96 47 3c b8 94 fa 3c 64 b3 b9 3f da 0f 98 3f
       0.012181883 0.030588493 1.4507871 1.1879838
0000d0 0c 76 ad bb 10 2b ad 40 ce 9f 7a 3c 72 32 91 40
       -0.0052936133 5.4115067 0.0152968895 4.537408
0000e0 20 ba 5c 40 3d 6b 05 3f 67 0a a2 3f cd 5e 71 3f
       3.4488602 0.5211676 1.2659425 0.9428528
0000f0 40 28 86 3d 6b e8 e4 bc bc 9c 88 c0 cc 58 24 3f
       0.06550646 -0.027942857 -4.2691326 0.64197993
000100 c1 6f 1d 3f 7c 5e 1a 3f c5 61 81 40 85 ff b3 3e
       0.6149865 0.6030042 4.0431848 0.35155883
000110 b8 9b 93 40 4d 6e 78 ba b6 a0 50 40 f0 ef f0 3b
       4.6127586 -0.00094768853 3.259809 0.0073528215
000120 97 ef 15 40 56 fe cf 3d 2d 1d 44 bf 22 45 44 3f
       2.3427484 0.101559326 -0.7660702 0.7666799
000130 87 36 00 bd 35 49 4d 3b 8c a7 e5 3f e3 f5 5f 40
       -0.031302 0.0031324152 1.7941756 3.4993827
000140 55 f0 22 40 ca 11 a8 3f de 01 b3 40 1e 7e f7 3f
       2.5459187 1.3130429 5.593978 1.9335363
000150 f6 9b 0c 40 c5 cf f9 3f 86 26 8d 3d 16 bb 74 40
       2.197019 1.9516531 0.068921134 3.8239188
000160 34 5b 8a bb 6c 27 a8 bf 02 25 19 bc 09 e6 14 3d
       -0.004222298 -1.3137031 -0.009347202 0.03635219
000170 14 a4 64 40 f0 e8 f5 3c 9e da e0 3b 62 72 b6 3a
       3.5725145 0.0300183 0.0068619987 0.0013919587
000180 7b d1 ce 3e 0b a2 2c 3d ed 1b b5 3f 2d 43 28 bc
       0.40394196 0.042146724 1.4149147 -0.010269922
000190 e8 90 b4 bb f1 59 81 40 2c 64 cf 3f 7d 22 c7 3f
       -0.0055104382 4.042229 1.6202445 1.55574
0001a0 88 0d 0a 40 81 32 0a 3d 57 69 77 3d d3 a0 88 40
       2.157076 0.03373957 0.060403194 4.269632
0001b0 ed 83 7c 3f d0 4d ea 3f 6b 07 4a 3d 46 02 6c 3f
       0.986388 1.8304996 0.04932348 0.9219097
0001c0 f4 a3 52 bc 5e 01 df 3d e3 86 92 c0 24 75 3e 40
       -0.012856472 0.10888933 -4.5789657 2.9758997
0001d0 80 b7 58 3c 98 27 d1 3e a2 09 ff 3f ce 22 ce 40
       0.013227344 0.4085052 1.9924815 6.4417486
0001e0 fb a6 a0 3d 64 47 2f 40 45 bd c6 3f 03 1f bb 3c
       0.07844349 2.7387323 1.552651 0.022841936
0001f0 94 23 e3 3c 5a 13 f5 bf 10 34 b5 3f a3 52 a2 c0
       0.027726926 -1.9146531 1.4156513 -5.0725875
000200 e2 ed 36 c0 e1 1e 17 3d 27 ca 36 40 48 66 10 c0
       -2.8582692 0.036894683 2.8560884 -2.2562428
000210 2f 9f 7e 3f 70 4c 83 40 35 0d 0e 40 81 b3 f8 3b
       0.99461645 4.1030807 2.219556 0.007589758
000220 ff 8a 97 3e 2b 7b 93 3d fa a5 61 3d dc 1e 52 40
       0.29598233 0.07201227 0.05508993 3.2831335
000230 9c c2 67 be 8f a4 18 c0 76 2c 22 40 11 6a 16 40
       -0.22632831 -2.3850439 2.5339637 2.3502238
000240 ee 97 89 bd 1f 82 f5 3e f7 e8 b6 40 b5 b6 46 3d
       -0.067184314 0.47950837 5.715938 0.048514087
000250 db 55 cb c0 a4 86 12 41 ab cf 3f bf ae bc 5a 3e
       -6.3542304 9.157871 -0.7492625 0.21361038
000260 1e 99 92 be f1 23 2e 40 1e bb 60 be 87 ad 1e 40
       -0.28632444 2.7209437 -0.2194638 2.4793413
000270 a6 3c b6 3d 37 b5 1c c0 c0 4f 64 3d d0 af 85 3f
       0.088982865 -2.4485605 0.055740118 1.0444279
000280 f2 e9 ff 3d 5a dd cb 3e c6 ad 8a 40 bc 34 99 3f
       0.124957934 0.39817315 4.3337126 1.1969218
000290 00 af 4e 3e 25 20 a9 3f a8 fb e4 bf c7 05 cf bb
       0.20183945 1.3212935 -1.7889299 -0.0063178274
0002a0 41 15 44 3d 94 71 01 bf a8 2f a0 3d bb aa 00 40
       0.04787183 -0.5056393 0.0782159 2.0104206
0002b0 04 44 1b 40 4b ba 6a 3f cf 56 a4 3f 6f dd 92 be
       2.4260263 0.9169051 1.2838992 -0.28684565
0002c0 57 42 b4 bd 6f fe 1b bc b8 26 15 40 ba 8e 95 40
       -0.08801716 -0.009521111 2.3304882 4.6736727
0002d0 68 eb d3 3d 19 d0 af 40 90 b9 76 3d 5f dd 8a 40
       0.103476346 5.4941525 0.06023556 4.339523
0002e0 a3 b6 13 3f 79 77 b7 3f be 2d a4 be db 69 cb 3f
       0.57700557 1.4333335 -0.3206615 1.589168
0002f0 2d 72 06 3d 2c 43 50 3d cc 80 85 c0 f9 18 24 3f
       0.03282373 0.05084531 -4.1719723 0.64100605
000300 00 3b 65 3f 53 21 a2 3f b2 f2 47 40 d5 6f bc 3f
       0.8954315 1.266642 3.124188 1.4721628
000310 ad c7 e4 40 c0 e9 67 3d bc ea d5 3f d9 a7 43 3d
       7.1493745 0.056619406 1.671226 0.047767494
000320 4a 07 10 40 86 af de 3c 41 d3 92 bf 82 0a fe 3f
       2.250445 0.027183305 -1.147072 1.9846957
000330 80 fd 36 bb 72 83 0e 3e 89 fc 1f 40 63 5a 53 3f
       -0.0027922094 0.1391733 2.4997885 0.82559794
000340 4d 3f 29 40 07 d8 35 40 ff 24 b8 40 8b 31 ff 3f
       2.6444886 2.8413103 5.754516 1.9936994
000350 08 df 71 3f 3b 9d f4 3f da 8e 8d 3e 9d 31 83 40
       0.94480944 1.9110483 0.2764805 4.0998063
000360 3b 0d de 3d 68 6d 70 bf 92 16 dc 3d 7a e1 98 3b
       0.10842367 -0.9391694 0.107464924 0.004665551
000370 68 00 9b 40 be ed 18 3e bc e0 17 3d 37 07 bb 3c
       4.8437996 0.14934441 0.037079558 0.022830589
000380 4a f2 95 3e cd 3b 98 bc d9 52 0d 3f fe 29 ec 3d
       0.29286414 -0.018583203 0.5520454 0.11531447
000390 9f 76 80 bc 5b 26 86 40 c5 cf bb 3f 25 81 c1 3f
       -0.015681563 4.192182 1.4672781 1.5117537
0003a0 b4 35 00 40 2b 91 9b bb 7f b9 0e 3a 8f aa 5e 40
       2.0032778 -0.00474753 0.0005444511 3.47916
0003b0 f4 10 87 3f 87 ee c8 3f b5 6c 93 bc 7c 5f 39 3f
       1.0552049 1.5697793 -0.017996171 0.7241132
0003c0 2f 52 ad 3d 4a 8c 4e bb 27 fc 9d c0 2b b7 1c 40
       0.08462941 -0.0031516724 -4.9370303 2.4486797
0003d0 5f b0 94 be bf 4c 49 3f f4 97 f9 3f 1f 0f 8f 3f
       -0.2904081 0.7863273 1.9499497 1.117649
0003e0 39 28 04 3e e1 bf 87 40 1c 6f f4 3f 5c 09 e3 bb
       0.12905969 4.2421727 1.9096408 -0.006928606
0003f0 e8 4b a6 bd 36 0b 80 bf 7a 3f 60 40 4d d7 60 c0
       -0.08119947 -1.0003421 3.5038743 -3.513141

4.bias f4 [4]
000000 f2 f8 d4 41 8c 21 6c 41 fa 3b c5 c0 f6 72 ba c0
       26.621555 14.75819 -6.1635714 -5.8265333
