src/best_model_standard_scaling_general.pth (torch, 74720 bytes, 6 tensors)

0.weight f4 [128, 6]
-0.0015302097 -0.0003806334 -0.0061832154 -0.010519881 -0.0018875194 -0.02802016 0.0067391675 8.314626e-05
-0.030373719 -0.0064283684 -0.015863625 -0.019734705 -0.014353775 -0.005367858 -0.005850439 0.011227168
-0.010396485 -0.020905148 -0.04169031 -0.02459068 0.031182535 0.040064894 -0.026803592 -0.025812564
0.03407631 0.005375023 -0.059501316 -0.009905928 0.0020440652 -0.041308545 -0.007911076 -0.05247469
-0.079834804 0.06660928 -0.050667148 -0.013328606 0.0044466746 0.014326304 0.0010625393 0.0023571278
0.0071574915 -0.034487806 0.43656376 0.5973593 -0.09846669 0.039641302 0.42637378 -0.028741015
0.1733454 -0.022990692 -0.054123495 -0.08437879 0.038397893 -0.059260793 0.003568335 -0.0013687664
-0.019297717 -0.00018343703 -0.006503443 -0.021814434 -0.001389067 0.0009616617 -0.0012048453 0.0019463374
-0.0025488234 -0.00078320684 0.10286173 -0.14171205 -0.025915818 0.21177943 -0.12481855 -0.23478119
0.012538177 -0.0060252096 -0.010076979 0.012279822 -0.012368694 -0.04281363 -0.27049252 -0.5600016
0.07585577 -0.124768816 -0.26206583 0.014373727 0.019085059 -0.01795363 -0.100254625 0.010345441
-0.042684406 -0.023650138 -0.024401546 0.016035974 -0.021968465 0.00822244 0.007027562 -0.034867935
0.0041859224 0.003660417 -0.0029132648 0.003251498 0.00095981866 -0.016120896 0.0009939047 0.006427196
-0.020272756 -0.0075959703 -0.008325326 -0.062278103 -0.049226616 -0.079265185 0.0141384015 -0.33067396
-0.07042932 -0.010878959 0.004095384 0.0005654333 -0.007121917 0.00014601354 -0.0016748135 -0.02367684
-0.038777884 -0.027352402 0.027051335 0.065564916 -0.004152361 -0.23072626 2.5972606e-05 2.376207e-06
-5.468183e-05 -0.00012746749 2.3461591e-06 -2.3635179e-05 -0.0005574975 -0.0036245065 -0.0048569907 0.0021873976
-0.0056861783 -0.0105901295 -0.01276622 -0.013167186 -0.025028758 0.01728963 -0.016438913 -0.02958954
-0.006302749 -0.004757391 -0.0321529 -0.009456052 -0.015717208 -0.057825133 0.007259889 6.66968e-05
-0.032944296 -0.0023272354 -0.0052532167 -0.040182322 -0.0115936855 -0.0049704434 -0.0330063 -0.004439133
-0.011232206 -0.054155163 -0.059091363 -0.0078053134 0.017622944 -0.00041118692 -0.0075129755 -0.019966686
0.0041867625 0.0035271344 -0.028493203 -0.0014168676 0.006259851 -0.028401922 -0.00040916464 -0.0025556646
-0.009565687 0.005473708 -0.0047127116 -0.013412462 -0.39099908 -0.019523421 0.11074353 -0.4727231
-0.04696205 -0.024315674 -0.046466626 -0.016911743 -0.04039557 0.12298567 -0.026186481 -0.027141225
-0.0022348866 -0.0033544553 -0.0030122332 0.004145911 -0.0050819484 -0.030953841 3.1747095e-05 0.0003581715
-0.0044638547 -0.0025335902 -0.0015282814 -0.004812413 0.0031536254 0.00030380025 -0.008522401 -0.00014640293
-0.0031835497 -0.022269182 -0.00063953846 -0.00020944678 -0.013074632 0.0025246346 -0.0056870575 -0.025292175
0.22454186 -0.010945307 -0.028525516 -0.054190595 -0.009666198 -0.18344335 -0.058141846 -0.033095192
0.031083645 0.114324175 -0.030029686 -0.112760976 -0.023217298 -0.0039954837 0.00291589 0.0028110847
-0.009081248 -0.028581325 0.0018717907 -0.00018318163 -0.0044871615 -0.0017091732 -0.00024214415 -0.011469363
0.001629879 -0.010800843 -0.0155823575 0.022827353 -0.018000979 -0.026972452 0.23949973 -0.2988258
-0.39428672 0.036751844 -0.14500917 -0.02676553 -0.008522891 -0.0033065318 -0.01591965 0.059550676
00000000: 5191 c8ba c08f c7b9 929c cabb 945b 2cbc
00000010: a466 f7ba 898a e5bc 3cd4 dc3b cf5e ae38
00000020: 4ed2 f8bc 10a5 d2bb 6ff4 81bc adaa a1bc
00000030: 192c 6bbc dbe4 afbb 0ab5 bfbb 28f2 373c
00000040: 0556 2abc 4641 abbc 75c3 2abd 6572 c9bc
00000050: 8472 ff3c 161b 243d 3593 dbbc df74 d3bc
00000060: 9a93 0b3d f620 b03b a7b7 73bd 794c 22bc
00000070: b9f5 053b 2633 29bd 759d 01bc b3ef 56bd
00000080: 6e80 a3bd 726a 883d 5b88 4fbd 3a60 5abc
00000090: 69b5 913b e0b8 6a3c e744 8b3a 0b7a 1a3b
000000a0: 6489 ea3b 1643 0dbd 4985 df3e 8aec 183f
000000b0: e7a8 c9bd eb5e 223d aa4d da3e 4772 ebbc
000000c0: 7581 313e fa56 bcbc 99b0 5dbd c9ce acbd
000000d0: 1c47 1d3d 72bb 72bd bada 693b 2e68 b3ba
000000e0: 3f16 9ebc 0159 40b9 d51a d5bb 2fb4 b2bc
000000f0: 5b11 b6ba 0618 7c3a e6eb 9dba 3f1c ff3a
00000100: 290a 27bb 1f50 4dba 2ca9 d23d f71c 11be
00000110: 694d d4bc b5dc 583e dea0 ffbd 7b6a 70be
00000120: ed6c 4d3c 1f6f c5bb ea19 25bc 4e31 493c
00000130: 10a6 4abc 585d 2fbd ff7d 8abe 445c 0fbf
00000140: 455a 9b3d cb86 ffbd 7e2d 86be c87f 6b3c
00000150: 4558 9c3c 7e13 93bc 4c52 cdbd ed7f 293c
00000160: d8d5 2ebd efbd c1bc c0e5 c7bc e05d 833c
00000170: 36f7 b3bc 6ab7 063c 7647 e63b aed1 0ebd
00000180: 102a 893b 9be3 6f3b 79ec 3ebb 1617 553b
00000190: 579c 7b3a f80f 84bc e845 823a 3a9b d23b
000001a0: 0d13 a6bc 9ee7 f8bb f366 08bc 5317 7fbd
000001b0: d9a1 49bd c955 a2bd c1a4 673c 194e a9be
000001c0: 3f3d 90bd a93d 32bc 9232 863b 9639 143a
000001d0: f85e e9bb 361b 1939 6a85 dbba eff5 c1bc
000001e0: 8fd5 1ebd 2512 e0bc c39a dd3c e646 863d
000001f0: 8710 88bb 8143 6cbe bfdf d937 ed76 1f36
00000200: 2b5a 65b8 cba8 05b9 b572 1d36 2944 c6b7
00000210: 0625 12ba 2189 6dbb 6427 9fbb 715a 0f3b
00000220: 1f53 babb 3982 2dbc 6829 51bc 2ebb 57bc
00000230: 1c09 cdbc fba2 8d3c e6aa 86bc c365 f2bc
00000240: 4a87 cebb e3e3 9bbb c2b2 03bd 8fed 1abc
00000250: 60c1 80bc 0cda 6cbd 5de4 ed3b 92df 8b38
00000260: 99f0 06bd 8884 18bb 2d23 acbb 3896 24bd
00000270: 71f3 3dbc 1adf a2bb 9d31 07bd 2676 91bb
00000280: 4907 38bc ced1 5dbd c909 72bd b7c3 ffbb
00000290: fe5d 903c 9394 d7b9 682f f6bb 2d91 a3bc
000002a0: 1c31 893b 7f27 673b 946a e9bc 30b6 b9ba
000002b0: 701f cd3b 26ab e8bc 2685 d6b9 f07c 27bb
000002c0: 66b9 1cbc ca5c b33b 176d 9abb f1bf 5bbc
000002d0: 0831 c8be 95ef 9fbc 81cd e23d c308 f2be
000002e0: 475b 40bd aa31 c7bc ca53 3ebd 7f8a 8abc
000002f0: d375 25bd e9df fb3d 0885 d6bc 4657 debc
00000300: 2d77 12bb 6cd6 5bbb e368 45bb 6cda 873b
00000310: 7986 a6bb e992 fdbc 2f28 0538 f7c8 bb39
00000320: 8745 92bb 970a 26bb 9d50 c8ba 72b1 9dbb
00000330: 0ead 4e3b 6147 9f39 8aa1 0bbc bd83 19b9
00000340: 1aa3 50bb dc6d b6bc b3a6 27ba f19e 5bb9
00000350: fb36 56bc 5774 253b 7f5a babb 8931 cfbc
00000360: 4dee 653e f253 33bc 58ae e9bc f5f6 5dbd
00000370: f95e 1ebc 93d8 3bbe 2526 6ebd d38e 07bd
00000380: 21a3 fe3c cb22 ea3d d100 f6bc 3aef e6bd
00000390: 3432 bebc 8cec 82bb 8418 3f3b 2d3a 383b
000003a0: 84c9 14bc 6223 eabc e056 f53a 7214 40b9
000003b0: 0a09 93bb 5606 e0ba 13e8 7db9 ffe9 3bbc
000003c0: aaa1 d53a 05f6 30bc 254d 7fbc 6e00 bb3c
000003d0: ca76 93bc 55f5 dcbc 6b3f 753e b2ff 98be
000003e0: f3df c9be 1a89 163d 497d 14be 6343 dbbc
000003f0: 99a3 0bbc 66b2 58bb ed69 82bc 69eb 733d

0.bias f4 [128]
-0.06605333 -0.046744667 -0.049809236 -0.041125625 -0.07257773 -0.010642777 -0.08573052 -0.61752856
-0.43307278 -0.042447772 -0.0046573267 -0.14752938 -0.065027 0.56960726 -0.082449734 -0.10467871
-0.05152565 -0.08753047 -0.04254185 -0.030967304 0.48345268 -0.00022691995 -0.030982984 -0.075877115
-0.07483815 -0.062114112 -0.09881909 -0.033285182 -0.070341066 -0.028345494 -0.40089458 -0.110611394
-0.045574557 -0.014068005 -0.046213195 -0.05521638 0.0014807179 -0.11495403 -0.064322606 -0.019040117
-0.067868054 0.06962551 -0.092468165 -0.051671088 -0.04798365 -0.0308135 -0.08998289 -0.02733301
-0.00018793279 -0.20602247 -0.00013018229 -0.075522594 -0.016907297 -0.038114075 -0.031269096 -0.09903858
-0.08690145 -1.5477808 -0.072703294 -0.06560177 -0.10384891 -0.020620376 -0.07452231 0.819898
-0.049694326 -0.17340824 -0.041175112 -0.00418724 -0.0476733 -0.057747785 -0.03841792 -0.066816285
-0.056271084 -0.06197982 -0.059777617 -0.054621626 -0.06037438 -0.044530276 -0.09458188 -0.07413874
-0.046009317 -0.054472744 -0.03211478 -0.044511933 -0.47061267 -0.08937347 -1.1811332 -0.03632785
-0.06880515 -0.026412556 -0.0051736385 -0.07361925 -0.07535207 -0.07043781 -0.048501484 0.036952123
0.26163337 0.53953975 -0.048872255 -0.13975063 -0.045629486 -0.05953289 -0.08565598 -0.005505428
-0.060473785 -0.10629285 -0.04807418 -0.031707805 -0.01552426 -0.0913948 -0.039557084 0.5178537
0.3202394 -0.06928417 0.29071185 -0.092870235 0.70031375 -0.07618818 -0.030103453 -0.06144433
-0.122231826 -0.032594282 -0.055285 -0.0048834053 -0.062808715 -0.10361397 -0.053171616 -0.036183327
00000000: f846 87bd 5677 3fbd c504 4cbd 5873 28bd
00000010: a2a3 94bd 0b5f 2ebc 7c93 afbd 5a16 1ebf
00000020: b7bb ddbe b7dd 2dbd 7d9c 98bb f111 17be
00000030: e02c 85bd c8d1 113f 68db a8bd cb61 d6bd
00000040: 8f0c 53bd 2d43 b3bd 5d40 2ebd 25af fdbc
00000050: 1c87 f73e 5cf1 6db9 07d0 fdbc 7665 9bbd
00000060: be44 99bd 5e6b 7ebd aa61 cabd 0b56 08bd
00000070: fa0e 90bd cf34 e8bc 0e42 cdbe 3a88 e2bd
00000080: 63ac 3abd 7d7d 66bc 0c4a 3dbd 922a 62bd
00000090: a614 c23a 056d ebbd 92bb 83bd 05fa 9bbc
000000a0: 68fe 8abd d297 8e3d f35f bdbd 10a5 53bd
000000b0: 818a 44bd 986c fcbc f348 b8bd 7ae9 dfbc
000000c0: d30f 45b9 8ef7 52be 8b81 08b9 97ab 9abd
000000d0: 2c81 8abc 811d 1cbd 0614 00bd bdd4 cabd
000000e0: 63f9 b1bd ae1d c6bf 77e5 94bd 395a 86bd
000000f0: bdae d4bd 10ec a8bc 279f 98bd d6e4 513f
00000100: 478c 4bbd ee91 31be 3ca7 28bd 1d35 89bb
00000110: 1445 43bd f188 6cbd 1c5c 1dbd fad6 88bd
00000120: 827c 66bd 8dde 7dbd 60d9 74bd edba 5fbd
00000130: 204b 77bd 6165 36bd 25b4 c1bd 0dd6 97bd
00000140: 4474 3cbd d01e 5fbd ca8a 03bd 2552 36bd
00000150: 25f4 f0be 7009 b7bd 5f2f 97bf 83cc 14bd
00000160: b7e9 8cbd 255f d8bc a087 a9bb b0c5 96bd
00000170: 3052 9abd b341 90bd 7ea9 46bd 1c5b 173d
00000180: cff4 853e 471f 0a3f 462e 48bd ca1a 0fbe
00000190: fce5 3abd c2d8 73bd 676c afbd e166 b4bb
000001a0: 5cb3 77bd 11b0 d9bd 6ee9 44bd 0be0 01bd
000001b0: 7759 7ebc 322d bbbd 9c06 22bd 0f92 043f
000001c0: 6bf6 a33e dce4 8dbd 2fd8 943e c032 bebd
000001d0: c347 333f 8c08 9cbd 849b f6bc 0dad 7bbd
000001e0: ae54 fabd 9581 05bd 8672 62bd f904 a0bb
000001f0: dba1 80bd 9033 d4bd 7bca 59bd f834 14bd

2.weight f4 [128, 128]
0.024978368 0.010449968 0.0004395434 -0.021438997 -0.0074322396 -0.0069193114 -0.00095132855 0.020534199
-0.0004003656 -0.00028937423 5.497752e-05 0.0025256525 -0.004011165 0.02111577 0.007087014 0.0049735815
-0.000108655375 0.0006299464 0.0023704486 -0.00092630595 -0.02393278 -3.4117537e-10 -0.00691538 0.016114492
0.00070587784 -0.0011882032 -0.0015923035 -0.011915316 -0.0011708012 -4.4795715e-07 -0.0074969106 -0.009150451
0.0011421553 -7.2608884e-05 0.00097130577 0.0013172455 -0.016506247 -0.0034109685 0.0013028621 -0.00025868719
-0.00017468123 0.0116032455 -0.0016970405 0.002214924 0.009886765 7.1118264e-11 0.022853088 0.00020049632
-1.8586943e-05 -0.00065555115 4.909e-42 -0.029470105 -1.1853715e-09 5.016162e-05 -0.0008272369 -0.0012071863
0.0057007466 -0.003632155 0.009337292 -0.0015547806 4.968934e-05 1.9853998e-10 8.882368e-05 -0.07294855
0.0007495394 0.023315467 -0.0013033994 3.7921156e-06 -0.0079968525 -0.0017181974 0.020736938 0.015568041
0.00052062335 0.0009985261 -0.009415969 0.0011537113 0.010495057 0.0006068164 0.0076665552 -0.0020118277
0.0001165925 0.002708882 2.0565478e-05 -0.0020454777 -0.032416638 -0.011264464 -0.0357291 0.008362093
0.000631788 -0.0011565614 -0.0061038686 0.0013028121 -0.027208086 -0.0005840494 0.00042859197 -0.018577762
-0.046574786 -0.011891242 -0.00022068302 -0.0062666563 0.00014823466 -0.0009594135 0.000317403 -0.00013901862
0.025199052 0.011886079 -0.0011743528 -6.3165375e-05 -0.00010141113 -0.018382546 -0.0008630118 0.03732313
-0.050799318 -0.0003162057 -0.046267275 0.0034254398 -0.059919253 -0.00063117273 0.00019735754 0.002716615
-0.001664034 0.0043417527 0.00017331845 -1.2023706e-08 0.038798522 -0.00049569947 -1.7462171e-06 0.0003194676
0.024696954 0.009823276 0.00043745307 -0.021656858 -0.007390291 -0.007362152 -0.0011191694 0.018049171
0.00071249175 -0.0002815929 5.3346044e-05 -0.006416069 -0.0039009366 0.027314948 0.0056593046 0.0037168409
-0.00010387803 9.08296e-05 0.0013101388 -0.0008853695 -0.014364732 -3.838961e-10 -0.007076066 0.017213942
-0.00095697667 -0.0011377602 -0.00027821306 -0.010813908 -0.0012195158 -3.1686244e-07 0.0056979675 -0.010512475
0.0008984092 -6.357256e-05 0.0009410927 0.0012646094 -0.013732078 -0.0062337853 0.0012482036 -0.0002748908
-1.3423167e-05 0.020700816 -0.0015265382 0.0045076325 0.010059729 3.8446687e-11 0.022516076 0.00019682958
-1.7965067e-05 -0.0019216315 4.935e-42 -0.029848063 -9.116592e-10 3.754541e-05 -0.0007896757 -0.0007198429
0.0057505774 -0.089886166 0.011348822 -0.0009876069 4.421076e-05 1.5849266e-10 8.2824365e-05 -0.06544114
0.00020942574 0.02672431 -0.0013906062 6.4576334e-06 -0.007712587 -0.0016973156 0.020459779 0.0155776795
0.00052679796 -0.0008069579 -0.009294165 0.0011496381 0.010464757 0.00069873384 0.0051086433 -0.002154402
0.000115519346 0.0028407697 2.0926733e-05 -0.0021629513 -0.030891743 -0.010593276 -0.0390295 0.009105324
0.0005837615 -0.0011943093 -0.005879995 0.0012869437 -0.027899206 -0.00055172096 0.00042550036 -0.010497959
-0.03763558 -0.010395455 -0.000498236 -0.0070249783 0.00014998639 -0.0011618432 0.003366835 -0.0001419118
0.028319066 0.011935079 -0.0008477733 -5.903615e-05 -1.2089339e-06 -0.018183548 -0.00063454884 0.006909728
-0.04091647 -0.00035073256 -0.04824824 0.0016962853 -0.046384815 -0.0006234175 0.00019366769 0.0027552953
-0.0012685194 0.0041681635 0.00015507231 -1.14013785e-08 0.0334011 -0.00052921637 9.5306765e-05 0.00032320648
00000000: 6f9f cc3c 5836 2b3c 8472 e639 d6a0 afbc
00000010: 258a f3bb 64bb e2bb 9462 79ba 5637 a83c
00000020: 29e8 d1b9 27b7 97b9 aa97 6638 6b85 253b
00000030: 1770 83bb fbfa ac3c 2f3a e83b 6df9 a23b
00000040: e9dd e3b8 fd22 253a 8759 1b3b 57d3 72ba
00000050: ad0e c4bc 2a90 bbaf 699a e2bb 8a02 843c
00000060: a90a 393a 7cbd 9bba d7b4 d0ba 7538 43bc
00000070: 9275 99ba c37e f0b4 a5a8 f5bb c6eb 15bc
00000080: 5fb4 953a 9945 98b8 3a9f 7e3a 6da7 ac3a
00000090: 1c38 87bc 8e8a 5fbb ccc4 aa3a 68a0 87b9
000000a0: a32a 37b9 8a1b 3e3c 3b6f deba 4228 113b
000000b0: 19fc 213c 0664 9c2e 6636 bb3c 523c 5239
000000c0: 28eb 9bb7 4bd9 2bba af0d 0000 4a6b f1bc
000000d0: 8dea a2b0 a164 5238 eeda 58ba 733a 9eba
000000e0: 54cd ba3b 7309 6ebb 71fb 183c c8c9 cbba
000000f0: 8669 5038 094c 5a2f da46 ba38 0d66 95bd
00000100: bd7c 443a 1400 bf3c d4d6 aaba 0d7c 7e36
00000110: 3b05 03bc 2335 e1ba 83e0 a93c 1911 7f3c
00000120: 717a 083a fae0 823a 7045 1abc 2138 973a
00000130: 76f3 2b3c c212 1f3a ba37 fb3b ded8 03bb
00000140: 1f83 f438 8087 313b 0784 ac37 6c0d 06bb
00000150: 4fc7 04bd 968e 38bc ad58 12bd 2901 093c
00000160: 939e 253a c397 97ba f602 c8bb 1fc3 aa3a
00000170: 7ee3 debc e41a 19ba a4b4 e039 6430 98bc
00000180: 34c5 3ebd 7cd3 42bc 2667 67b9 8658 cdbb
00000190: 706f 1b39 2681 7bba 1c69 a639 87c5 11b9
000001a0: 3e6e ce3c d4bd 423c beec 99ba a777 84b8
000001b0: b0ac d4b8 fe96 96bc be3b 62ba 23e0 183d
000001c0: f212 50bd 69c8 a5b9 c182 3dbd 587d 603b
000001d0: e46d 75bd 4975 25ba c3f1 4e39 3d09 323b
000001e0: b71b daba 4345 8e3b d1bc 3539 d190 4eb2
000001f0: 33eb 1e3d d4f1 01ba 905f eab5 377e a739
00000200: 4451 ca3c cef1 203c f559 e539 b969 b1bc
00000210: 412a f2bb 353e f1bb 18b1 92ba dbdb 933c
00000220: 83c6 3a3a c2a2 93b9 e1bf 5f38 e33d d2bb
00000230: dba6 7fbb 99c3 df3c b071 b93b 3e96 733b
00000240: 18d9 d9b8 c57b be38 f7b8 ab3a 2418 68ba
00000250: 0e5a 6bbc 930c d3af 58de e7bb 4104 8d3c
00000260: 9edd 7aba e620 95ba 20dd 91b9 d12c 31bc
00000270: 29d8 9fba 3e1d aab4 04b6 ba3b 843c 2cbc
00000280: 3983 6b3a 4252 85b8 a9b3 763a 40c1 a53a
00000290: 82fc 60bc c844 ccbb c39a a33a 381f 90b9
000002a0: 1034 61b7 c294 a93c 1f16 c8ba c3b4 933b
000002b0: 90d1 243c 1f17 292e a273 b83c 0a64 4e39
000002c0: b0b3 96b7 41df fbba c20d 0000 ed83 f4bc
000002d0: 5098 7ab0 147a 1d38 3d02 4fba d7b3 3cba
000002e0: 576f bc3b 3d16 b8bd 69f0 393c 9772 81ba
000002f0: f16e 3938 b843 2e2f feb1 ad38 0106 86bd
00000300: 4b99 5b39 f1ec da3c 0045 b6ba a6ae d836
00000310: deb9 fcbb 7678 deba 449b a73c 8639 7f3c
00000320: d018 0a3a 078a 53ba 8e46 18bc 74af 963a
00000330: 5f74 2b3c 3c2b 373a 6866 a73b de30 0dbb
00000340: fa42 f238 352c 3a3b d18b af37 4dc0 0dbb
00000350: ae10 fdbc 6b8f 2dbc 66dd 1fbd 7f2e 153c
00000360: 9207 193a 5f8a 9cba f9ac c0bb aaae a83a
00000370: e08c e4bc 5ea1 10ba b115 df39 a2ff 2bbc
00000380: c427 1abd b351 2abc 0d9c 02ba ca31 e6bb
00000390: aa45 1d39 fd48 98ba 1ea6 5c3b 29ce 14b9
000003a0: 63fd e73c 598b 433c 1a3d 5eba 959d 77b8
000003b0: a742 a2b5 aaf5 94bc da57 26ba 006b e23b
000003c0: 0798 27bd 87e2 b7b9 f29f 45bd e455 de3a
000003d0: 01fe 3dbd d76c 23ba 4613 4b39 2f92 343b
000003e0: 7344 a6ba 1795 883b e89a 2239 cbdf 43b2
000003f0: 98cf 083d 1cbb 0aba 6edf c738 0a74 a939

2.bias f4 [128]
2.4318516 2.333213 2.2135944 2.2039676 1.9673828 2.2921362 2.0201359 2.6686757
1.5784994 1.522388 1.5106717 1.57402 0.54694545 2.069435 1.3150018 2.0707986
2.4483309 1.456639 1.9647112 0.6194471 1.9626905 2.3381553 -1.6801872 2.2505226
0.6479926 2.0961292 2.4420228 2.04776 1.688139 -0.015979143 1.2750015 -4.783774e-09
0.41660827 1.8434443 2.1862068 2.5586793 -0.039219745 2.0699575 1.7542229 1.7526075
2.0855875 2.1972198 2.3236701 2.0797503 1.9658257 1.7806009 2.0476758 2.0538628
1.9053932 1.6733097 2.4315345 0.8405674 2.0695662 2.4380322 1.7988498 1.6922095
2.325783 2.3962374 0.932596 1.588342 2.5623817 1.2960968 1.4701678 2.0802157
-0.09153469 1.7358788 1.3589996 0.36664164 1.872715 0.9575758 0.8478434 2.079838
1.0349358 2.3111923 3.924304 2.1828253 1.6077207 1.0385623 2.3953764 0.30789834
1.7945546 1.4259596 3.637783 0.5292735 0.07212736 2.378963 -0.043010503 2.0831995
1.68893 1.503519 1.2113241 1.2178998 1.6460282 1.3140485 2.0900564 1.5959948
2.0377712 2.205536 1.4300863 2.2374258 1.7068914 2.0118499 0.9639334 2.0163035
1.689028 1.7799495 2.0091953 0.00833413 1.3546721 1.593837 1.4695626 1.9187914
2.0182054 0.85504204 2.5756254 2.588174 1.9653796 0.86691856 0.5520378 1.4866903
2.191262 1.5499585 1.3279852 0.96615285 0.7274915 1.982251 1.3830364 2.446756
00000000: 75a3 1b40 5d53 1540 88ab 0d40 ce0d 0d40
00000010: 33d3 fb3f 5cb2 1240 e849 0140 95cb 2a40
00000020: 450c ca3f 9cdd c23f b15d c13f 7d79 c93f
00000030: 9e04 0c3f 9f71 0440 fb51 a83f f787 0440
00000040: 74b1 1c40 2673 ba3f a87b fb3f 1694 1e3f
00000050: 7139 fb3f 56a4 1540 6010 d7bf 9008 1040
00000060: d8e2 253f fb26 0640 1a4a 1c40 800e 0340
00000070: f014 d83f b1e6 82bc 4033 a33f 855e a4b1
00000080: ae4d d53e fcf5 eb3f d0ea 0b40 67c1 2340
00000090: e2a4 20bd 2f7a 0440 608a e03f 7155 e03f
000000a0: 447a 0540 409f 0c40 03b7 1440 a11a 0540
000000b0: 2da0 fb3f bbea e33f 1f0d 0340 7d72 0340
000000c0: ede3 f33f 032f d63f 439e 1b40 6d2f 573f
000000d0: c673 0440 b808 1c40 b640 e63f 529a d83f
000000e0: a1d9 1440 f45b 1940 9dbe 6e3f ca4e cb3f
000000f0: 10fe 2340 80e6 a53f 752e bc3f 4122 0540
00000100: 8a76 bbbd 4731 de3f b3f3 ad3f 74b8 bb3e
00000110: 20b5 ef3f b023 753f 440c 593f 111c 0540
00000120: c778 843f 93ea 1340 cc27 7b40 69b3 0b40
00000130: cbc9 cd3f 9cef 843f d94d 1940 daa4 9d3e
00000140: f7b3 e53f d885 b63f 70d1 6840 787e 073f
00000150: 82b7 933d ee40 1840 c82b 30bd 2453 0540
00000160: dc2e d83f 5073 c03f ab0c 9b3f 24e4 9b3f
00000170: 0db1 d23f be32 a83f 7cc3 0540 8f49 cc3f
00000180: d86a 0240 8027 0d40 110d b73f fc31 0f40
00000190: 6b7b da3f 26c2 0040 57c4 763f 1e0b 0140
000001a0: 1232 d83f 63d5 e33f a896 0040 e08b 083c
000001b0: e565 ad3f da02 cc3f a11a bc3f f59a f53f
000001c0: 472a 0140 09e4 5a3f 0cd7 2440 a5a4 2540
000001d0: 8f91 fb3f 60ee 5d3f 5952 0d3f de4b be3f
000001e0: a33d 0c40 0a65 c63f 6bfb a93f cb55 773f
000001f0: e23c 3a3f 67ba fd3f 5607 b13f a697 1c40

4.weight f4 [4, 128]
1.1575481 1.0822966 1.1348087 1.1161507 1.0401651 1.0295233 1.0092018 -1.8632002
0.2593121 0.29236627 0.34020343 0.34968328 0.05346973 1.0713719 0.30634683 1.0584502
1.1595176 0.33297965 0.9969865 -0.77571964 0.9926687 1.1348212 -1.3841609 1.1377172
0.13953434 1.07203 1.1739496 1.0764498 0.39796364 0.89650375 0.2049044 -5.5653504e-07
-0.019294977 0.9213973 1.1076466 -1.997322 -0.06614365 1.0738207 0.8665138 0.46058244
1.077328 1.1373925 1.1066548 1.0490614 1.0441529 1.0474701 1.0582948 1.0333754
0.9884321 0.38679492 1.1334956 0.3158624 0.98185766 1.1551687 1.0480818 0.8601666
1.1880819 1.1917775 0.37608683 0.80180156 -1.5927875 0.2630841 0.37230617 1.0371209
0.084172845 0.4355408 0.27976984 -0.84956086 1.1470737 0.23733811 -0.1687116 1.0693297
0.2371873 1.1846973 -1.1243222 1.0959352 0.32836115 0.19572675 1.1297504 0.006894174
-1.5069138 0.30622616 -2.1489055 0.34914646 0.030501522 1.1479405 -0.4062637 1.0715201
0.38440955 0.35373327 0.2982039 0.97268754 0.35276222 0.2520207 1.0757341 0.32009718
1.1052235 1.1264286 0.2721636 1.1570979 0.41864341 1.0007757 0.79646546 1.0634158
0.3867458 0.43448678 1.0266166 -0.40078256 0.26307264 0.33331707 0.26980355 0.9833536
1.0467049 0.31686968 1.2537006 -2.4351459 0.99777853 -0.11987659 0.07242933 -0.88473606
1.0514961 0.36054215 1.0084614 0.5770534 0.33657253 1.0254982 0.4204086 1.1700952
1.240916 1.1615258 1.2031105 1.1547617 1.0233191 1.1600279 1.0778576 -2.392227
0.4195916 0.61229634 0.5228385 0.59938735 0.18372898 1.0745115 0.49901202 1.1209853
1.254733 0.48713455 1.0392992 -0.9052127 1.016921 1.1755788 -0.68447906 1.2006592
0.27624393 1.1378194 1.1867421 1.0490122 0.56196547 0.49888867 0.22638135 -2.6182217e-06
-0.20001185 0.93304455 1.2095277 -1.8515323 -0.008248135 1.1776352 0.89965516 0.6325816
1.1570698 1.176396 1.2252073 1.0758743 0.98457634 0.99367166 1.0768907 1.0939986
0.95489407 0.60835767 1.2553555 0.3845804 0.93365824 1.2388827 0.9660076 0.81073606
1.3001249 1.0042572 0.40092897 0.7472846 -2.6146436 0.46524593 0.5541248 1.1282358
0.0036190927 0.5962778 0.42959777 -1.0689428 1.0618205 0.10658256 0.0026780074 1.1659801
0.31764576 1.2188607 -1.7675438 1.2251364 0.5387799 -0.020525284 1.2118689 0.035079464
-1.1891463 0.5227489 -3.0441923 0.28901967 -0.62379795 1.1334053 -0.063318826 1.0750089
0.58166033 0.5416769 0.36004594 0.81772906 0.52424026 0.13100573 1.1438335 0.5453055
1.1497701 1.118149 0.4372312 1.189127 0.6210837 1.1327146 0.9240502 1.0760407
0.5566468 0.6034046 1.0389788 -0.8891454 0.42411688 0.49476185 0.4972615 0.9651527
1.046317 0.42137814 1.22667 -2.8086727 1.0459483 -0.363951 0.05379392 -0.5166662
0.97050506 0.5413526 0.654942 0.17623691 0.14234592 1.0232246 0.6655781 1.2468612
00000000: 892a 943f b288 8a3f 6941 913f 07de 8e3f
00000010: 2124 853f 6bc7 833f 862d 813f 587d eebf
00000020: 8ec4 843e 08b1 953e 252f ae3e b009 b33e
00000030: 1303 5b3d b722 893f 7ed9 9c3e 4c7b 873f
00000040: 136b 943f 4f7c aa3e 823a 7f3f 9095 46bf
00000050: 891f 7e3f d241 913f 2f2c b1bf b8a0 913f
00000060: 17e2 0e3e 4738 893f fb43 963f 1bc9 893f
00000070: e4c1 cb3e 4581 653f 76d2 513e cc64 15b5
00000080: 8010 9ebc b2e0 6b3f 5dc7 8d3f 3fa8 ffbf
00000090: 5276 87bd f572 893f d9d3 5d3f 76d1 eb3e
000000a0: e2e5 893f 1496 913f dda6 8d3f a547 863f
000000b0: cda6 853f 8013 863f 3476 873f a545 843f
000000c0: e309 7d3f fc09 c63e 6216 913f b7b8 a13e
000000d0: 065b 7b3f 91dc 933f 8b27 863f e133 5c3f
000000e0: 1113 983f 2a8c 983f 748e c03e de42 4d3f
000000f0: 76e0 cbbf f6b2 863e ea9e be3e 61c0 843f
00000100: d062 ac3d 34ff de3e fe3d 8f3e d27c 59bf
00000110: 50d3 923f c308 733e bcc2 2cbe ccdf 883f
00000120: 3ae1 723e 29a4 973f cae9 8fbf 9b47 8c3f
00000130: f41e a83e 986c 483e a99b 903f 86e8 e13b
00000140: 8de2 c0bf adc9 9c3e ab87 09c0 53c3 b23e
00000150: 54de f93c b7ef 923f cc01 d0be 9227 893f
00000160: 54d1 c43e 871c b53e 2eae 983e 0d02 793f
00000170: 409d b43e db08 813e a8b1 893f c7e3 a33e
00000180: f777 8d3f d02e 903f 0759 8b3e c91b 943f
00000190: 6e58 d63e 6b19 803f 29e5 4b3f 021e 883f
000001a0: 8c03 c63e 0d75 de3e 2c68 833f 5f33 cdbe
000001b0: 75b1 863e 89a8 aa3e b123 8a3e 10bd 7b3f
000001c0: 6dfa 853f be3c a23e 4379 a03f 6ed9 1bc0
000001d0: 6a6e 7f3f dc81 f5bd d455 943d 107e 62bf
000001e0: 6d97 863f fb98 b83e 4315 813f c6b9 133f
000001f0: 3c53 ac3e 8643 833f cc3f d73e aec5 953f
00000200: 56d6 9e3f e1ac 943f 86ff 993f 3bcf 933f
00000210: 1ffc 823f cb7b 943f 3df7 893f 3f1a 19c0
00000220: b6d4 d63e 74bf 1c3f bed8 053f 7371 193f
00000230: 7323 3c3e 9889 893f 817e ff3e 727c 8f3f
00000240: 179b a03f b369 f93e c207 853f 05bc 67bf
00000250: 782a 823f 5e79 963f 053a 2fbf 33af 993f
00000260: d86f 8d3e 11a4 913f 2ae7 973f 0846 863f
00000270: f8dc 0f3f 566e ff3e 83d0 673e b5b4 2fb6
00000280: e8cf 4cbe 02dc 6e3f ced1 9a3f 03ff ecbf
00000290: 3023 07bc c0bc 963f cd4f 663f def0 213f
000002a0: dd1a 943f 2594 963f 98d3 9c3f 40b6 893f
000002b0: 320d 7c3f 4461 7e3f 8ed7 893f 2508 8c3f
000002c0: f073 743f 54bd 1b3f 7daf a03f b9e7 c43e
000002d0: 3a04 6f3f b593 9e3f 464c 773f 668c 4f3f
000002e0: 7e6a a63f 808b 803f 9046 cd3e 0b4e 3f3f
000002f0: 5256 27c0 b734 ee3e 1fdb 0d3f 086a 903f
00000300: 4d2e 6d3b a9a5 183f 3df4 db3e 1ed3 88bf
00000310: bce9 873f f547 da3d 8281 2f3b d63e 953f
00000320: 77a2 a23e a103 9c3f e03e e2bf 45d1 9c3f
00000330: 7bed 093f a424 a8bc 851e 9b3f 7caf 0f3d
00000340: f235 98bf dfd2 053f 0cd4 42c0 63fa 933e
00000350: 39b1 1fbf 6d13 913f 4dad 81bd e499 893f
00000360: b1e7 143f 56ab 0a3f f157 b83e b156 513f
00000370: 9c34 063f 5e26 063e 2369 923f 2499 0b3f
00000380: ab2b 933f 821f 8f3f c5dc df3e 5035 983f
00000390: 57ff 1e3f cbfc 903f 8e8e 6c3f b4bb 893f
000003a0: 6880 0e3f b978 1a3f 42fd 843f 089f 63bf
000003b0: d925 d93e 6d51 fd3e 0f99 fe3e 3f14 773f
000003c0: b7ed 853f e0be d73e 8603 9d3f 4bc1 33c0
000003d0: a2e1 853f c957 babe 0357 5c3d 3c44 04bf
000003e0: 0573 783f 1696 0a3f 47aa 273f 7377 343e
000003f0: 21c3 113e 06f9 823f 5463 2a3f 2699 9f3f

4.bias f4 [4]
1.3188864 0.6917415 -0.06333958 -0.35785785
00000000: 45d1 a83f f915 313f 2fb8 81bd 2539 b7be
